models/d.pth (torch_old, 45657 bytes, 13 tensors)

fc1.weight f4 [64, 37]
000000 0d af 80 3e 8a 7d 5f 3b ad 08 01 be 4f 7f 2b bf
       0.25133553 0.0034101927 -0.12600966 -0.6699113
000010 7a b9 c9 be 06 f6 54 3d 60 7d fa 3a 47 0a 05 3e
       -0.3939932 0.05199244 0.0019110851 0.12992202
000020 b3 fe 19 bd 0e 25 2e bd 75 3b 84 bd d6 e3 d5 bc
       -0.037596416 -0.042515807 -0.06456653 -0.026109617
000030 04 ca b0 be ce 0a 8a 3d 58 44 99 bc 6b b1 6d 3e
       -0.34529126 0.06740342 -0.018709347 0.23212211
000040 f6 62 69 bd ea 53 07 be f2 31 56 bd 2d c3 d3 be
       -0.056979142 -0.13215604 -0.052293725 -0.41359845
000050 bf 05 31 3e 6d e6 03 3d 23 f6 32 be 69 20 0e 3e
       0.17287348 0.032202173 -0.17476706 0.13879551
000060 81 1f 35 3e 82 88 80 bd 68 5f 6e 3e db fe 19 be
       0.17687799 -0.06276037 0.23278582 -0.15038626
000070 61 d2 8f 3d 6e 7d 34 bc 3f 3d 84 3d 8c 94 3e bc
       0.070225485 -0.011016233 0.06456994 -0.011632096
000080 4b 90 73 be ab ef 2d 3d a8 e7 bb bd 7f d3 bf bd
       -0.23785512 0.042464893 -0.09175044 -0.093665116
000090 d5 4f 5f bd d1 ef 52 bd 88 06 8e 3d b6 33 48 3e
       -0.054519493 -0.051498238 0.069348395 0.19550976
0000a0 f3 be 6f bd e8 24 79 bd 85 b6 b5 3b 1b f1 b9 bd
       -0.058531713 -0.060826212 0.0055454397 -0.0907919
0000b0 af 60 7b be 51 27 86 be 5f ae c8 be ba e2 56 3e
       -0.245486 -0.2620187 -0.39195535 0.20984927
0000c0 df f5 5f bd f7 e9 8f bd 11 3a 4d bd 54 5b a7 3e
       -0.05467784 -0.07027047 -0.050104205 0.32686865
0000d0 d1 3c fa bc c3 30 d6 3d fc 25 18 3e 93 7a 4d be
       -0.030546578 0.10458519 0.1485824 -0.2006629
0000e0 1b 51 ca 3d b6 86 3a 3d ec 14 97 be 1d 13 18 be
       0.09878751 0.045538627 -0.2950815 -0.14851041
0000f0 21 25 ec 3c 36 b6 9a 3e 2f 97 b9 bd 53 4c 1f 3c
       0.028826298 0.3021714 -0.09062039 0.009722787
000100 67 a6 26 3d 08 0b a9 3d 1d 4c 87 3e a7 1a ca 3d
       0.040686037 0.08254057 0.26425257 0.09868365
000110 b3 ef 29 bd 6d e7 f5 3d 6a 5a 83 3d e1 c0 83 3e
       -0.04148836 0.120070316 0.064137295 0.25733092
000120 b3 ca 77 3d f9 9c e0 3c 16 f9 a4 3d 18 bc 38 3e
       0.060496043 0.0274186 0.08055322 0.18040502
000130 67 13 80 3b 0b 0f ef bd 65 9e 62 3e 3c fc 1b bb
       0.003908563 -0.11672791 0.22130735 -0.0023801466
000140 19 3e 2e be 65 b7 c6 3d 84 70 4a 3e 3b 7b be be
       -0.17015876 0.097029485 0.19769484 -0.37203392
000150 bb c9 69 3d 0c 4c ae be 58 4c c0 3d c6 47 0c 3d
       0.05707715 -0.34042394 0.093895614 0.034248136
000160 13 5f 95 3e 7b d9 b4 3d ad f0 00 be 43 8a 55 3d
       0.29174098 0.088305436 -0.1259181 0.05213381
000170 64 7b 18 3e 38 df c8 3d 31 36 86 be c4 a6 35 bd
       0.1489082 0.098082006 -0.2621322 -0.044348493
000180 3e ca 07 3e fa 48 99 3e d4 cd 8d be 22 75 e8 bd
       0.13260743 0.2993849 -0.27696097 -0.11350466
000190 9e d3 0e 3e 5e b2 e0 3d 08 3d 81 bd 3d 02 63 3b
       0.13947913 0.10971521 -0.06310469 0.0034638785
0001a0 a2 dd 0f be 63 da 39 be 67 88 85 bd 0d df 86 be
       -0.1404939 -0.18149714 -0.06520157 -0.2634205
0001b0 27 22 a8 bd ba 98 ab 3c ba 2e a5 bd 56 34 80 3d
       -0.08209639 0.02094685 -0.08065553 0.06259982
0001c0 fe cf 51 3d 9b 62 f2 3d a9 57 ba 3d 39 ab 9a 3d
       0.051223747 0.11835214 0.09098751 0.075521894
0001d0 59 23 6c bc 7d 8b 9d 3d 57 03 d2 3d c5 18 19 3e
       -0.014412724 0.07692621 0.10254543 0.14950855
0001e0 3f a2 73 3e eb 28 f8 ba a9 f2 06 3d 9e 2b e4 bd
       0.2379236 -0.0018933093 0.032946263 -0.11141132
0001f0 d4 5e 3c be c9 11 b3 be 1d 0e eb bd 7a 1b 56 bb
       -0.18395549 -0.34974506 -0.11477301 -0.0032670186
000200 c8 22 82 bb 24 a3 eb bc e6 75 50 3d 8c 24 a0 3e
       -0.0039714314 -0.028764315 0.050893687 0.31277883
000210 72 df 88 bf 3c 29 03 bf d8 90 8a be ca 7a ae bf
       -1.069319 -0.51234794 -0.27063632 -1.3631222
000220 36 31 16 bc eb 69 9d 3c a7 2c 45 3d 5e 88 64 3e
       -0.009167006 0.019215545 0.048138287 0.22317645
000230 46 15 86 3e 6d 3c 2e 3d ce 80 aa 3e 63 48 df 3d
       0.26188105 0.042538095 0.33301395 0.109024785
000240 90 87 45 bd 1f ec 65 be 3a 02 74 3d 9a 89 ab b9
       -0.048224986 -0.22453354 0.059572436 -0.00032718183
000250 b7 67 8e bd 53 9a be bc 4a 9c eb bd 28 d1 22 bd
       -0.06953376 -0.023266947 -0.11504419 -0.03975025
000260 7b fa 05 3d c7 69 cc 3e b8 68 84 be c8 f9 08 bf
       0.03270958 0.39924452 -0.25861144 -0.53506136
000270 da 9a fc be a1 8a da bf 61 ec bb bd 14 c5 df 3c
       -0.49336892 -1.7073556 -0.09175945 0.027315654
000280 58 10 95 3d 45 a1 9f bc e0 12 fd bd 71 f9 f4 bd
       0.07278508 -0.019486079 -0.12357116 -0.1196164
000290 bc 4f b1 3c e8 b5 b1 3c 47 fe 89 3c f3 96 22 3e
       0.021644466 0.021693185 0.016844882 0.15877895
0002a0 64 e3 af bd 1f f0 87 3d 2a aa 02 3e 69 70 83 3c
       -0.08588293 0.06637596 0.12760225 0.016044812
0002b0 65 23 37 3e a1 0f 18 3d 42 97 b3 3d 18 f0 ce 3d
       0.17884596 0.03712428 0.087690845 0.10104388
0002c0 86 88 7d 3d 00 f9 61 3d f5 4b 53 3d 75 59 83 3d
       0.061897777 0.055169106 0.05158611 0.06413547
0002d0 ee ef 9c 3d 45 e8 10 3d 96 13 5a 3e 81 ff 01 3d
       0.076629505 0.03537776 0.21296534 0.03173781
0002e0 24 de 1c 3c 56 0b f9 3c 6d 97 0a bd c0 d3 71 be
       0.009574447 0.030400913 -0.033835817 -0.23615932
0002f0 f1 ac 5d 3c c4 70 fb bd ef 65 38 be b0 1d 72 3e
       0.013530002 -0.12277368 -0.18007635 0.23644137
000300 4d 88 8b be 5c 52 7c be f9 27 d4 be ef 5f 0e be
       -0.27252427 -0.24640793 -0.41436747 -0.13903783
000310 3f ce 90 be 12 8c 01 3d 27 be 4b be ff 24 cb bd
       -0.28282353 0.031627722 -0.19896756 -0.09919166
000320 39 44 4e be c3 37 32 3e 3c 8f 9f be d2 c3 aa bd
       -0.20143212 0.17404084 -0.31163967 -0.08338131
000330 01 71 0a be cd 39 29 be 68 ae cc bd 3e 7e 78 3e
       -0.1351967 -0.16525955 -0.09994203 0.24266908
000340 55 29 d4 3d 21 f1 85 be 3b 1a a5 bd 7f b6 24 3d
       0.10359446 -0.2616053 -0.08061644 0.040213104
000350 a7 b3 03 be 1b a9 98 be c4 14 ee bd 02 0e ff bd
       -0.128615 -0.29816517 -0.116250545 -0.12453844
000360 92 f3 c4 bd f8 38 2b be 1f 11 64 3e ca ef eb be
       -0.0961677 -0.1672095 0.22272156 -0.46081382
000370 34 b8 a5 bd df 1e a8 3d bc 20 48 3e f0 0f aa 3d
       -0.080917746 0.08209013 0.19543737 0.08303821
000380 70 1d 5d be b4 a0 4b bd 30 59 65 be 07 1d 40 be
       -0.21593261 -0.049713805 -0.22397304 -0.18761073
000390 cc f6 70 3e a7 83 9e bd f3 f7 93 3d c8 c4 c6 3d
       0.23531646 -0.077399544 0.07225027 0.09705502
0003a0 11 08 b1 3d 32 bb 90 3d 37 25 48 3d 45 ee 1b bd
       0.08644117 0.07066955 0.048863616 -0.03806903
0003b0 46 6f 81 3e 4f 66 2d be 50 5d 64 3c e8 a2 c8 3c
       0.25280207 -0.16933559 0.013938263 0.024491742
0003c0 58 77 13 3e ce 51 af 3d 3f d2 6d be b1 ff fc ba
       0.14400995 0.08560525 -0.23224734 -0.0019302276
0003d0 a3 41 86 3e 9e be a2 3d de 0e b3 3e ec 60 79 be
       0.26221952 0.079465136 0.3497228 -0.24353379
0003e0 d7 88 8f 3d 29 2e e0 3c 22 cd b5 3c f9 e1 70 bd
       0.07008522 0.02736576 0.022192542 -0.058809254
0003f0 d9 5e 0c 3e 36 26 c4 bd 07 23 38 3d 1a 83 a3 be
       0.13708057 -0.09577601 0.04495528 -0.3193596

fc1.bias f4 [64]
000000 c7 d0 16 3e 35 21 e0 bc 9d 43 4d be d0 ac 28 3d
       0.1472808 -0.027359584 -0.20045324 0.04118043
000010 16 ea 43 3e bc 25 0d be 5d 36 ef bd ae 53 4d 3d
       0.19132265 -0.13783926 -0.11680291 0.05012863
000020 3a 14 81 3c f7 42 2a be 36 77 13 3e 35 45 f9 3d
       0.015756715 -0.16627108 0.14400944 0.12171403
000030 8b 06 1c 3e 1c f5 f7 3d 5d 1f bc bd 0c 54 a1 bd
       0.15236871 0.12107298 -0.091856696 -0.07877359
000040 f6 df d8 bb 9e f4 89 bd 3f 7d 52 bd ef 7e 19 be
       -0.006618495 -0.0673611 -0.051388975 -0.14989828
000050 f4 14 a6 bd cf 6b a1 3d 2b 1f 7c bc 7c 30 b5 bb
       -0.08109465 0.07881891 -0.01538829 -0.0055294614
000060 39 3d 89 bd 14 ef b1 3d 8e d0 47 bd 4c aa 91 bd
       -0.067011304 0.08688179 -0.048782878 -0.0711256
000070 0d 6c 3b 3e cd 58 05 3e 00 f2 d2 bd 2e ea 20 be
       0.18302937 0.13022156 -0.10300064 -0.15714332
000080 d3 db ee 3d 6f d1 44 bb b2 88 51 be 7c 05 b2 3d
       0.11663022 -0.0030032059 -0.20462301 0.08692452
000090 74 47 fb bd e0 b1 0d 3d 6b 51 01 bd 21 f3 09 be
       -0.12269488 0.034593463 -0.031571787 -0.13471653
0000a0 c6 e9 b6 bd c3 ba 62 bc 16 61 1b be 91 7a ea 3d
       -0.089313075 -0.013838473 -0.15173754 0.11449159
0000b0 65 78 8c bd 27 93 f9 bd dc 3f 80 bb 93 af 26 be
       -0.06858901 -0.1218627 -0.0039138626 -0.16277914
0000c0 30 17 cb bd fd a1 08 3d 9d 5f bc bd 4b 76 97 3d
       -0.09916532 0.03335761 -0.09197924 0.073956095
0000d0 84 8b 69 bc f8 69 09 bd d3 98 25 be 09 3f b5 3c
       -0.0142544545 -0.033548325 -0.16171579 0.022124784
0000e0 58 09 9b 3d bb 70 a3 bb 98 0f 3e be 5f 0c 21 be
       0.075701416 -0.0049878038 -0.18560636 -0.15727375
0000f0 f4 8b 6f bd 26 f7 62 bc 30 29 1c 3d 0d 89 0d bc
       -0.05848308 -0.01385287 0.038125217 -0.0086386325

fc2.weight f4 [64, 64]
000000 05 6b 1b 3e ab b5 07 3e 8d 6c 7a 3d a7 02 d8 3e
       0.15177543 0.13252895 0.06113868 0.42189524
000010 02 50 a6 3e 96 6e 00 bd 64 b7 8f bd 11 9e ad bd
       0.32482916 -0.031355463 -0.07017401 -0.084774144
000020 f7 87 62 3d 62 8b 85 3d 68 47 98 3b 26 18 5d bc
       0.055305447 0.06520726 0.004647184 -0.013494527
000030 68 2d 46 bd 6b 39 a3 3e 86 da bb 3d f9 10 13 bd
       -0.048383147 0.31879744 0.091725394 -0.03590486
000040 9e 69 8f bd 61 30 b8 bc b7 7c 39 bd 28 2b 83 3d
       -0.07002567 -0.022484006 -0.045284953 0.06404716
000050 24 35 ef 3c 36 db 9c bd d5 d6 4f 3e b3 01 6d 3b
       0.029200144 -0.07658999 0.20296796 0.0036164343
000060 2e d3 09 3d 8d d4 02 3e fa 21 2b 3e 12 67 5e 3d
       0.033648662 0.12776394 0.1671218 0.054297514
000070 4c 4a 55 3e 3a 2b 5a 3d 64 84 f3 bd ff 15 f5 bc
       0.20829123 0.05326388 -0.11890486 -0.029917715
000080 14 ae 87 3d 35 77 b2 3c 6f bc d5 3d 73 e5 e3 3d
       0.06625 0.021785358 0.104363315 0.11127748
000090 03 81 b5 bd 46 80 4c 3e f9 57 28 3e 13 21 15 bd
       -0.08862498 0.19970807 0.16439809 -0.036408495
0000a0 d3 80 7a 3d 71 19 df bc f7 1f 57 be 3b 5c 17 bc
       0.061158013 -0.027233811 -0.21008287 -0.009238298
0000b0 bf 8c 5a bc 70 83 dc bc 08 0d fb bd 1c 16 84 3d
       -0.013339221 -0.026918143 -0.12258345 0.064495295
0000c0 9e 0a 0a 3e 83 ee 25 3e 70 2b 88 bd 16 4e 0c 3e
       0.13480613 0.16204266 -0.0664891 0.13701662
0000d0 39 02 f7 bd dd 6c 2a 3d 28 36 de bb ba 04 03 bd
       -0.12060971 0.041607726 -0.0067813583 -0.03198693
0000e0 01 79 d5 bb e7 a8 fb 3d 2b 30 c6 bd 48 11 8a b8
       -0.006514669 0.12288075 -0.09677156 -6.583572e-05
0000f0 9a ad 58 3d 7b 3e 62 3e fe 49 54 bd bd bb 39 bd
       0.052899934 0.22094147 -0.051828377 -0.045345057
000100 af 89 96 3d 04 82 fa 3d 25 db d5 bd a2 51 bf 3d
       0.0735048 0.1223183 -0.10442189 0.09341742
000110 9a 54 19 be 36 93 50 3e 51 a5 c1 bd c2 93 f9 bc
       -0.14973679 0.20368657 -0.0945536 -0.030465964
000120 85 80 52 3c 1c 81 b2 3b af ee 61 3d b1 56 f1 3d
       0.012848024 0.00544752 0.055159267 0.11784113
000130 61 41 cb bd fd 5a 14 3e 18 fb 5d be 7c 76 51 bd
       -0.099245794 0.14487834 -0.21677816 -0.051138386
000140 45 29 8e bd 45 ed 95 3d 02 5b 2c be 7e 37 4c bd
       -0.06941465 0.07320646 -0.16831592 -0.04985761
000150 62 f5 d9 bd 55 6a 23 be 2b cb 9b bc 4f 4c d3 bd
       -0.10642506 -0.15958531 -0.019017776 -0.10317289
000160 c4 67 db bd 38 2a 52 37 b9 b5 55 bd 57 c5 4b be
       -0.10713151 1.2526805e-05 -0.052175257 -0.19899498
000170 0c 4a 2a 3d 9d fc b6 be d8 77 67 3d 8d 10 18 be
       0.041574523 -0.35739604 0.056510776 -0.14850064
000180 6a b0 a3 bd ed ac 05 bd b6 27 a3 3d 36 f2 a2 bd
       -0.07992633 -0.032635618 0.07966559 -0.07956354
000190 ee 8e 0f be 41 0b 68 3d ec 9a 85 3e ca 76 22 be
       -0.14019367 0.056651358 0.2609476 -0.15865627
0001a0 7a 63 5e bb e4 7b cf bb 65 89 18 3d 62 3e a4 bd
       -0.0033933804 -0.0063319076 0.037240405 -0.08019711
0001b0 7b 25 bc bd be e8 83 be b4 4e bd bd bd 98 11 be
       -0.09186836 -0.25763506 -0.09243527 -0.14218421
0001c0 1b e1 05 be 2c d3 02 be da 47 84 3d 31 1d 9f bc
       -0.13074152 -0.12775868 0.06459017 -0.0194231
0001d0 a3 ca 41 be d4 47 a6 bc ae c9 a4 be a9 9a 8a 3d
       -0.18924956 -0.020297922 -0.3218512 0.0676778
0001e0 72 a8 5c be cb 07 c4 3d cc ea 73 3e 4e a2 ca 3c
       -0.21548632 0.09571799 0.23820037 0.024735596
0001f0 66 57 1c be 26 a9 82 bd c6 5e 92 bc 45 3b 93 be
       -0.15267715 -0.06379919 -0.017867457 -0.28756157
000200 34 aa 43 be 1a 80 32 be 15 13 28 be a7 55 4b 3e
       -0.19107896 -0.1743168 -0.16413529 0.19856893
000210 67 07 7e be 8b ce 9d 3c 8e 62 06 be df 79 78 bd
       -0.24807511 0.019263526 -0.13123533 -0.0606631
000220 01 74 f5 3d 53 5d 1d bd 19 7a d5 3c ff 3b 42 be
       0.119850166 -0.03841908 0.026059197 -0.18968199
000230 18 d4 22 bd f4 90 85 3e c8 c2 c1 3c 9c 24 12 bd
       -0.03975305 0.26087153 0.02365245 -0.035679445
000240 76 93 36 be 45 80 e5 3d 88 e9 b9 bc 6e 33 03 b9
       -0.1782969 0.11206106 -0.022694364 -0.00012512293
000250 2f 42 8a be e2 97 df 3d c2 ef b3 be 71 8d 2f 3e
       -0.2700362 0.10917641 -0.35143858 0.171438
000260 5f 30 a5 be 5b b9 74 3d ff dd 04 3e 9a d6 47 3d
       -0.32263467 0.05974708 0.1297531 0.048788644
000270 e1 b4 17 be c6 98 61 bd bc cd 64 bb cd f3 ff bd
       -0.14815094 -0.055077337 -0.0034912666 -0.12497673
000280 3a 5d 5e be c9 23 eb bc 98 ff 57 bd ad 80 04 3e
       -0.2171525 -0.028703587 -0.052733988 0.12939711
000290 22 b7 a0 3d 51 e7 56 3e f7 d7 85 3d 72 71 d0 3c
       0.0784743 0.20986678 0.06535333 0.02544472
0002a0 43 08 8f 3d 41 4d e6 bd 59 c4 e3 3c 0b d9 ae 3d
       0.06983998 -0.11245204 0.027803587 0.085374914
0002b0 76 0d 45 3d db 8f c4 3d a6 b0 2e 3d 07 81 97 be
       0.04810854 0.09597751 0.042648934 -0.29590628
0002c0 96 2d ff bd 21 3e dd be a4 72 78 bc 2a e2 89 be
       -0.12459867 -0.43211463 -0.015164051 -0.26930362
0002d0 d4 d1 22 bd 63 71 ab 39 53 0d 05 be f8 c4 57 bd
       -0.03975089 0.0003270014 -0.12993364 -0.05267808
0002e0 af 68 ac be b6 2d fe 3c b2 f4 7a 3e ad b9 d2 3c
       -0.33673617 0.031027656 0.24507406 0.025723303
0002f0 dd 67 75 be 86 3c 9a 3e 23 17 04 3e 91 51 36 be
       -0.23965402 0.301243 0.12899451 -0.17804553
000300 ca eb a4 bc 22 10 f6 bd 32 8f a5 3c 0e 00 0b be
       -0.020131964 -0.12014796 0.020209882 -0.1357424
000310 57 62 17 3a 93 f7 ae bd fc ce 43 be ee 24 56 bd
       0.00057748466 -0.08543315 -0.19121927 -0.052281313
000320 33 ac a2 be b7 2b 36 3e 07 c6 a8 bb 43 ec 5e bc
       -0.31772003 0.17790113 -0.00515056 -0.013606134
000330 58 54 49 bc c1 d5 d5 3d 85 1f de 3d 8e 14 23 be
       -0.0122881755 0.10441161 0.108458556 -0.1592581
000340 e4 49 15 bd c7 8c 80 3b f2 37 35 3d 74 30 2a bd
       -0.03644742 0.003923032 0.044242807 -0.041550115
000350 fb d1 11 be 63 19 31 3e 1f d3 b2 3d 4f bb 60 bd
       -0.14240257 0.1729484 0.087316744 -0.05486613
000360 a1 2f e3 3d 49 55 0c 3d bd 13 07 bc 1e da 72 3e
       0.11093069 0.03426102 -0.008244452 0.23716018
000370 87 28 dc bd 23 fd e8 3d fb f3 85 3e cb 58 0f be
       -0.107499175 0.11376407 0.26162705 -0.13998716
000380 18 2f 41 bd 43 f1 c2 bd 42 a6 9e bc 4f 1e 12 bd
       -0.047164053 -0.09518673 -0.019366387 -0.035673436
000390 d1 db 44 be 50 ed d6 bd 95 a2 b6 3d 12 8d 29 3d
       -0.19224478 -0.104944825 0.08917729 0.0413943
0003a0 e4 b4 20 3e cd dc 2d 3e 9b 02 ee 3d 8c 91 09 bc
       0.15694004 0.1697876 0.11621591 -0.0083965175
0003b0 a2 e8 30 3d c6 54 9c 3d a0 c7 85 bd 63 3e ad 3c
       0.043190606 0.07633357 -0.06532216 0.021147912
0003c0 be 26 6b bd db 3a 76 3c aa 5a ef bc 09 dd fe bc
       -0.057409994 0.015028681 -0.029218037 -0.031111257
0003d0 4b 1b 3e 3d c1 39 0d be 02 3d e8 bd 08 5e ba 3d
       0.046412747 -0.13791563 -0.11339761 0.09099966
0003e0 cf b0 23 be 72 55 b5 3c df 87 71 be 91 c2 38 3e
       -0.15985416 0.02213547 -0.23586987 0.18042971
0003f0 bc 8e 58 bd dd 29 35 bb fd 16 20 be 27 63 a5 bc
       -0.052870497 -0.002764336 -0.1563377 -0.020188881

fc2.bias f4 [64]
000000 e1 6e 83 3d fd d4 a5 bd c2 ab c3 3d 53 b0 cd 3d
       0.06417633 -0.08097265 0.095542446 0.10043397
000010 0f 2f 20 3e d0 3e 07 be f7 8a 0f be 40 c8 e5 3d
       0.15642951 -0.13207555 -0.14017855 0.11219835
000020 3d 57 30 3c 6f 5e b0 3d 3a e8 8a bd 04 8b 22 3e
       0.010762987 0.08611762 -0.06782575 0.15873343
000030 7b b3 be 3c 00 80 a9 bc 27 a6 cb bd 45 da 8c 3b
       0.023278942 -0.020690918 -0.099438004 0.0042984807
000040 40 58 b6 3d 2f 5e be bd f3 12 8a bd 40 d8 b8 3d
       0.08903551 -0.09295308 -0.067418955 0.090256214
000050 ab 65 49 3d 38 43 8f 3d eb 86 09 bd a1 40 62 bd
       0.049169224 0.06995243 -0.033575933 -0.055237416
000060 a6 ef 4f bd 23 7b ff 3c 72 32 e3 3d 28 43 03 3c
       -0.050765656 0.031186646 0.11093606 0.008011617
000070 c2 d5 42 bd 35 75 36 3d 81 21 cb 3d b9 6b 32 be
       -0.047567137 0.04454537 0.099185 -0.17423905
000080 1c 4a 23 3d 77 4a a5 3d d7 53 94 3d 38 bd 28 bd
       0.039865598 0.08070844 0.07242554 -0.041196078
000090 42 cb bf bd b0 73 6d bd 8b a4 79 3c 2c 0b 51 ba
       -0.0936494 -0.057971656 0.015236984 -0.0007974382
0000a0 a8 ca b7 bd 19 1a d2 3d e7 1e 22 bc c3 6b 92 bd
       -0.089742005 0.10258884 -0.009895063 -0.0714946
0000b0 4c 19 1f 3b 62 b5 3d bc bd cf b3 bd 22 8d 93 bd
       0.0024276553 -0.01157889 -0.08779857 -0.07204653
0000c0 c0 b7 09 3e 6d f4 1c be eb f9 0d be 8f 98 1e 3d
       0.13449001 -0.15327616 -0.13864867 0.03871971
0000d0 7d b1 bc bc 4d e4 47 bd fb 34 e2 3c 63 df b1 bd
       -0.023033852 -0.04880171 0.027613154 -0.08685186
0000e0 14 9b 0a be bb 57 d7 bd 0f 98 e7 bb a2 93 5d 3d
       -0.1353572 -0.1051478 -0.0070676873 0.05409587
0000f0 4a 3c 9d 3d e5 cb 7e 3d ee bd a8 3d 0e 49 fa bd
       0.07677515 0.062206168 0.08239351 -0.12220965

fc3.weight f4 [32, 64]
000000 08 31 8c bd a9 1f 8b 3d 7f 00 4f bd 79 4b 69 3c
       -0.068452895 0.06793148 -0.050537582 0.0142391855
000010 b9 fe 16 bc 92 0f 8f bd 1c 7a e8 3d 7a 13 fa bd
       -0.009216004 -0.06985392 0.113514155 -0.12210746
000020 77 89 bf 3d 61 a6 34 bd 2b 86 fb be 91 e0 f9 bd
       0.09352391 -0.044103984 -0.491258 -0.12201036
000030 08 7f a5 bd 07 7b ba bd fc 4e 73 be 17 6b 7d 3d
       -0.0808087 -0.09105497 -0.23760599 0.061869707
000040 07 d7 70 be ab 37 41 3d 6d 8c 33 be 4f 72 1f 3d
       -0.23519526 0.04717223 -0.17534037 0.038927373
000050 4f 67 07 3e 2e 7e 44 bd 51 9e 00 bd d8 ed 8c bd
       0.13223003 -0.047971897 -0.031400982 -0.068813026
000060 17 7f cf bc 54 f2 aa be 27 48 3f be c4 2b 69 be
       -0.025329156 -0.33388007 -0.18679868 -0.22770602
000070 00 9e cb ba 9d f2 0d bd 7b 05 81 be e4 aa 8c ba
       -0.0015534759 -0.034655202 -0.25199494 -0.0010732082
000080 9c 77 05 3d bd ef 3d be 86 48 ad bd 93 e8 18 be
       0.03258477 -0.18548484 -0.084610984 -0.1493247
000090 29 c1 45 3e 8f 59 ac be ef 87 b0 bd 66 d1 4a 3d
       0.19311966 -0.33662078 -0.08619677 0.049516104
0000a0 14 e8 17 3d 0a 66 54 3d 19 de 31 3c b0 a0 a0 3d
       0.03708656 0.051855125 0.010856175 0.07843149
0000b0 22 7b 54 bd 36 21 bd be 6e d4 9b 3d e8 6a 0a 3e
       -0.05187524 -0.369394 0.07608877 0.13517344
0000c0 70 bf c2 bd cf 59 90 3e d4 bc 04 bc a3 57 bb 38
       -0.0950917 0.2819352 -0.008101661 8.9331785e-05
0000d0 3c c1 b1 bd 8d d8 11 be 87 64 ae 3d f2 0f ac 3d
       -0.08679435 -0.14242764 0.08515268 0.08401479
0000e0 ee 45 7e be 29 e0 44 3d 4f a9 b2 3e 81 c1 b7 3c
       -0.24831364 0.04806534 0.34894797 0.022431137
0000f0 08 cd 91 bd 24 9a 7a 3c 3f 32 36 bd af 9e bc 3d
       -0.07119185 0.015295539 -0.044481512 0.09209954
000100 2d a0 f8 3b fb 73 5d bd 60 3d f2 bd d6 eb 11 be
       0.007587454 -0.054065686 -0.118281126 -0.1425012
000110 4e 46 00 be 22 5a 1e 3d 59 c0 e1 3b ec 15 9d 3d
       -0.12526819 0.038660176 0.0068893847 0.07670197
000120 2a 36 3d bd 01 53 02 3e a9 ed 15 3e 74 15 7d 3d
       -0.046194233 0.12726976 0.14641441 0.061788037
000130 2a 59 d6 bd 0e 92 0d 3e c3 80 77 be d7 92 db 3d
       -0.104662254 0.13825247 -0.24170212 0.10721367
000140 2b f4 6f bd 5e e1 ce 3c 6d 4f b9 bd 12 e9 95 bc
       -0.058582466 0.025253948 -0.090483524 -0.018299613
000150 aa 40 cf 3d 44 95 aa 3d fb 9d b7 3d 01 2f b6 3e
       0.101197556 0.083292514 0.08965679 0.35582736
000160 2c 45 99 3e c9 7d b9 bd 1b ab 1b be fe 60 9b bd
       0.29935586 -0.09057195 -0.1520199 -0.07586859
000170 d6 b0 7e be 17 26 e9 3d 6a e0 1c 3e bf 57 95 3e
       -0.24872145 0.11384218 0.15319982 0.29168507
000180 c4 43 f1 ba 5e 4e 17 be 73 94 4b 3d fa 9a 4c bd
       -0.0018407037 -0.14775988 0.04970212 -0.049952485
000190 8d 10 0f 3e 9c 22 3e bd 9f 8b 20 3e 4c 64 52 3c
       0.13971157 -0.046419725 0.15678261 0.012841295
0001a0 95 b0 16 be c0 71 07 3e ca 35 5d be 3f 80 6f 3d
       -0.14715798 0.13226986 -0.2160255 0.058471914
0001b0 7b 2e c9 bd 8c 7f 5d bd 77 4a ac bc f2 84 15 bc
       -0.098233186 -0.054076716 -0.021031601 -0.009125935
0001c0 91 2a 45 bd 09 ec 5c bd 53 e2 5c be 8a c8 f7 bd
       -0.048136298 -0.05393604 -0.21570711 -0.12098797
0001d0 61 78 ae 3d d9 df 3f 3e 15 0c a9 3d af 1f 4b 3d
       0.08519054 0.18737735 0.082542576 0.049590763
0001e0 f7 0d 10 be 60 50 3f 3e a8 2d 97 bd 38 07 32 3e
       -0.14067827 0.18683004 -0.07381755 0.17385566
0001f0 2e d0 fa 3d f4 4f 47 3c 5b ee 03 3e df d8 c7 3d
       0.122467384 0.012165058 0.12883894 0.09758162
000200 08 7f 92 3d 15 a3 f2 3d 65 38 6c 3e c5 4f 64 bd
       0.071531355 0.11847512 0.23068388 -0.055740137
000210 99 d3 26 3e 7e b0 86 3e 5b 2b c3 3d 51 c7 cd 3c
       0.16291656 0.26306528 0.09529754 0.025119456
000220 01 a2 20 bc cb 22 eb bd 2b c4 0b bd f0 89 40 3e
       -0.00980425 -0.114812456 -0.034122627 0.18802619
000230 b1 f6 44 3e 30 9e 8a bd 5c fe d7 bd ac 6f ce bc
       0.1923473 -0.06768453 -0.10546562 -0.025199734
000240 54 18 38 3d 8c 86 de bc f1 5a 36 3c 8d a2 98 bc
       0.044945076 -0.027163766 0.011130081 -0.018632198
000250 4b 4d a1 bd 54 1e 3f 3e 02 81 aa bd 02 dd 24 3e
       -0.078760706 0.18663913 -0.083253875 0.16099933
000260 14 31 50 be 25 78 03 be ef f1 f9 3d 2a ff 96 bc
       -0.20331222 -0.128388 0.12204348 -0.018432219
000270 8d 13 6d 3d 2f 16 d6 3d 96 46 b8 3c 23 0a 85 be
       0.057879973 0.1045345 0.022494595 -0.25984296
000280 56 96 0b 3c e8 fe 28 be 1b 5d 8a 3e 4b 3a 2d 3e
       0.00851973 -0.16503489 0.2702416 0.16916768
000290 1c 17 e2 bc f7 ee 1e be 75 3a 43 bd f3 21 ec 3c
       -0.02759891 -0.15520845 -0.04766317 0.028824782
0002a0 d1 a6 f7 3d 21 c5 14 3e 7d 8a 30 3e dc 74 5c 3d
       0.120923646 0.14528324 0.17240329 0.053822383
0002b0 cf ed 26 3e 0e 31 bb bc ae 47 26 3d 66 2c 77 3e
       0.16301654 -0.02285054 0.040595703 0.2413803
0002c0 b0 d9 ce 3d 79 80 37 be 01 02 10 3e c6 ed 08 3e
       0.10100114 -0.17920102 0.14063264 0.13371953
0002d0 6c a1 bc 3d 64 7b 71 bd cd dc 80 3c 24 d4 6f 3d
       0.09210476 -0.058955565 0.015730286 0.058551922
0002e0 68 9c f3 bc 52 aa 91 3c a7 a4 c9 3d ef 86 1e bc
       -0.029737666 0.01778141 0.09845858 -0.009675725
0002f0 24 7b 98 be cd 9c ab 3d 10 76 2b be 6f 6a 24 3d
       -0.2978145 0.08379517 -0.16744256 0.040140565
000300 bf be fa 3d c7 19 fc 3c ad d2 e6 bd ef 16 4c be
       0.12243413 0.03077401 -0.11270652 -0.19930623
000310 97 a5 a5 bd 1b 40 a2 bd 02 f4 8b bd f9 6e 4d 3e
       -0.080882244 -0.079223834 -0.0683365 0.20061864
000320 e7 02 41 3e 66 b8 62 3e 30 c4 fe 3d 02 37 c8 bd
       0.18848763 0.22140655 0.124397635 -0.09776117
000330 c4 cd de 3d 69 a8 da be 3c 39 6e be fd c7 03 bd
       0.108790904 -0.42706612 -0.2326402 -0.032173146
000340 02 87 9c bd 48 31 12 bb 1f 76 65 bc 1f f6 d7 3d
       -0.07642938 -0.0022307206 -0.014005213 0.10544991
000350 76 7c 8e bd 70 8c a4 3d 93 04 25 be e3 a1 4e 3e
       -0.06957333 0.08034599 -0.16115026 0.20178942
000360 81 38 0a 3e 4f c6 38 be 90 e4 63 be 31 44 0a be
       0.13498117 -0.18044399 -0.22255158 -0.13502575
000370 98 85 fc 3d bd 22 7e be 57 60 d1 bd 46 30 b1 3e
       0.123301685 -0.24817939 -0.102234535 0.34607142
000380 57 ab af bd be 74 9c bc fa 47 9e be fc 54 77 3d
       -0.08577602 -0.019098636 -0.3091429 0.06038378
000390 9a 17 61 bd 11 e4 11 3e 8e 60 2b 3e 8e 2d 8e 3b
       -0.05495415 0.14247157 0.16736051 0.0043389266
0003a0 29 fb 4b be 35 60 f3 3d 91 0a eb bc 80 ee 2a be
       -0.19920029 0.118835844 -0.028691562 -0.16692543
0003b0 bd 3b 91 3e 2d 52 5d 3d cf d9 b9 bc d0 8f 2e 3c
       0.2836589 0.054033447 -0.022686867 0.010654405
0003c0 89 d2 09 bd b3 5c a8 be 2b 99 9e 3e 22 9d 1d bd
       -0.033648048 -0.32883224 0.30976233 -0.03847993
0003d0 05 ac d4 bd be a8 83 3e b5 22 63 3e 52 f9 bb bd
       -0.103843726 0.25714678 0.22181208 -0.091784135
0003e0 ff 39 7a be 03 a3 b5 be d6 f2 58 bd d9 d9 3a 3e
       -0.24436186 -0.3547593 -0.05296596 0.18247165
0003f0 a7 6f 6a 3d dd 10 ec 3d aa 38 36 3d 72 98 5c bd
       0.057235386 0.11526654 0.044487633 -0.05385632

fc3.bias f4 [32]
000000 95 c2 b8 bb 86 d5 de 3c 1a ec f5 3d 0f 0d 57 bd
       -0.0056384304 0.027201425 0.120079234 -0.052502688
000010 83 70 9b bd a6 88 98 bd 55 5a 07 bd 44 80 ae bd
       -0.07589819 -0.074479386 -0.03304513 -0.085205585
000020 96 ac 45 bd e7 69 af 3d ea bb 3b 3d 26 1f 0d bd
       -0.048260294 0.08565121 0.045833506 -0.034453534
000030 91 db d9 3c 1a d6 c0 3b 55 cc 4d bd 5c 90 be 3d
       0.026593955 0.005884898 -0.050243694 0.09304878
000040 41 d0 e8 bd ab e3 11 3e 20 94 20 3e df 96 26 bc
       -0.11367846 0.14247005 0.15681505 -0.010167806
000050 e3 c2 b5 3d 8e 85 f7 bb 8b b0 9e bb b1 40 a3 3c
       0.08875062 -0.0075537628 -0.004842823 0.019928308
000060 9e 1e 81 bd 3a 26 3e 3e dc d0 74 3d 0f 43 8f 3d
       -0.06304668 0.1856927 0.059769496 0.06995212
000070 34 26 d0 3c 57 01 cb bd 40 68 9f bd 88 06 35 be
       0.025408842 -0.09912365 -0.07783556 -0.17678273

fc1_adv.weight f4 [32, 32]
000000 8a 29 25 3e 18 9a 57 3e 0d 02 08 be 9c 2b c5 3d
       0.16129127 0.21054876 -0.13282032 0.096274585
000010 64 be 93 bd 85 54 d6 3d 17 6e 27 3d b7 b2 fa 3d
       -0.072140485 0.104653396 0.040876474 0.122411184
000020 af 34 50 3d ce 18 91 be 1c f7 f5 3e 82 27 22 be
       0.050831493 -0.28339237 0.48040092 -0.15835384
000030 a2 59 a2 3e ab 35 6e be 9d e6 60 3e d9 ed 64 3d
       0.3170901 -0.2326266 0.21962972 0.05589089
000040 50 09 9d 3c bb a9 19 be fc a9 72 3e 61 f9 b2 3d
       0.01916948 -0.15006153 0.23697656 0.087389715
000050 99 f2 73 3e 3a ad 26 3e 8b e0 06 3e 33 84 18 bd
       0.23823012 0.16277018 0.13171594 -0.03723545
000060 62 cf ab 3e 5a 60 ca bd ac e0 97 3e b4 10 7f be
       0.33556658 -0.09881659 0.296636 -0.24908715
000070 fe 84 3f be ca 44 f9 3d 21 9d 37 3c 6a a2 01 3e
       -0.18703076 0.121713236 0.011206896 0.12659612
000080 40 58 38 bd 04 66 b0 bd 50 2f b5 3d 5e c7 2b be
       -0.045006037 -0.08613208 0.08846915 -0.16775271
000090 c3 a0 a5 3d b6 15 8e be e8 0e 5a be 92 b5 70 bc
       0.080873035 -0.2775094 -0.21294749 -0.014691727
0000a0 87 b7 05 bc c4 a6 9e 3e ea 40 f7 bd 1e f6 3a 3e
       -0.008161432 0.30986607 -0.12072928 0.18257949
0000b0 af 8c 0d 3e 4c 1f 88 3c 63 3d 24 bc 1c 28 b5 3d
       0.13823198 0.016616486 -0.010024401 0.08845541
0000c0 84 05 29 3e 4d d1 1b bd c6 80 8c bd b4 2e d9 bd
       0.1650601 -0.0380414 -0.06860499 -0.10604611
0000d0 98 a9 c2 3d f7 f8 9c 3b 1a 5b ca be 89 5a f3 3e
       0.09505004 0.004790421 -0.3952263 0.4753001
0000e0 6f 91 1a be 85 b5 94 3e f6 2b e3 bd 65 59 44 3e
       -0.15094541 0.29044738 -0.11092369 0.19174726
0000f0 bd cc 41 3d 45 67 73 be 7e 2a 43 be c4 35 17 3e
       0.047314394 -0.23769863 -0.19059178 0.14766604
000100 44 51 37 be 94 4a 26 3d 90 1a 6b 3e 95 e8 1d be
       -0.17902094 0.040598467 0.22959352 -0.15420754
000110 ff 8a b2 bd 59 67 d7 3e 0c 19 fc 3d 0d 98 32 bc
       -0.08717918 0.42071036 0.12309465 -0.01090051
000120 f7 65 10 3e a1 a1 7c be cb 0c cf 3e 7c 0b 7c 3c
       0.14101397 -0.24671032 0.40439448 0.015383597
000130 4f 96 32 3d c4 55 18 bc 50 b5 77 3e 5d 7e 9e bc
       0.043600377 -0.009297792 0.24190259 -0.019347364
000140 94 b4 a3 3d 89 a1 3c be 2d 9c 51 be 49 e5 aa 3e
       0.07993427 -0.18420996 -0.20469733 0.33378056
000150 c0 47 89 3e bd 71 45 be e3 6a 7e 3e 8f 3a 36 3e
       0.26812553 -0.19281669 0.24845462 0.17795776
000160 16 5a a8 3e b6 f5 09 3e 86 3b dd 3e 07 f7 c3 be
       0.3288123 0.13472638 0.43209475 -0.38274404
000170 cb 72 27 3e a4 99 b3 3e 2b e4 64 be ae 17 4d 3e
       0.16352384 0.35078156 -0.22352664 0.20028564
000180 95 0e 96 be 9a 42 e4 3d 87 6f 11 3e ad 75 12 be
       -0.29308 0.11145516 0.142027 -0.14302702
000190 e1 31 b7 bc 5e 2e b5 be 55 a1 a9 3e cf 61 12 be
       -0.022362651 -0.35386938 0.331309 -0.14295124
0001a0 d4 8b e7 bd a4 5a 69 3e 6e 74 e1 3e c5 96 d5 bd
       -0.11305967 0.22788483 0.4403414 -0.10429148
0001b0 3d 9f 44 3e f0 2d 76 be 3a 83 a2 3c b9 86 9d bd
       0.1920137 -0.24040961 0.019837964 -0.07691712
0001c0 e4 e6 1c be 2c bc 19 3e 22 97 fe 3a cb da 00 be
       -0.15322453 0.15013188 0.0019423703 -0.12583463
0001d0 ee 5c 71 be ca 26 2e be 7d 27 52 3c 62 30 45 3e
       -0.23570606 -0.17006984 0.012826798 0.19256738
0001e0 89 53 1f 3d dc 49 11 3a 92 41 82 3d 6e a8 46 3d
       0.038898025 0.0005542317 0.06360163 0.04850047
0001f0 45 52 50 bd 94 ae aa be e4 7f 97 be 74 b7 77 3e
       -0.05085971 -0.33336318 -0.2958976 0.24191076
000200 bc c7 0e 3f 42 bd 40 be d8 fd 28 be 6e 37 83 bd
       0.5577352 -0.18822196 -0.16503084 -0.06407057
000210 e3 db fd 3d a8 8b d9 3e 82 89 08 3d 1a 0f df 3c
       0.12395456 0.42489362 0.033334263 0.02722888
000220 58 5a be 3e 09 30 2a 3e 4e a5 ad 3d e5 e1 2c be
       0.37178302 0.16619886 0.08478795 -0.16883047
000230 2d 10 92 3d b2 28 02 3f 6f 76 e6 bd 63 9d 1f be
       0.071319915 0.50843346 -0.11253058 -0.15587382
000240 80 12 23 be 89 85 8c 3d db 6b b1 be 5e aa d6 bd
       -0.15925026 0.06861407 -0.346526 -0.10481714
000250 70 9f 5f ba 31 6f bb bd ef 8e ed 3d 8a d3 3b bc
       -0.0008530533 -0.091520675 0.11599528 -0.011464009
000260 15 75 53 3e ae 52 7a be f3 20 4d 3e 29 bb 8a 3e
       0.20650132 -0.24445602 0.200321 0.27095917
000270 fc b5 7f 3d 17 91 01 3e 66 f4 a1 be 50 aa d8 bd
       0.062429413 0.12653004 -0.31631774 -0.105793595
000280 80 f4 95 bb e4 19 40 3e 36 1b a3 3d 16 0f a3 bd
       -0.004576266 0.18759876 0.079641744 -0.07961862
000290 3f 1d 04 be 79 85 9f 3e a7 33 89 bd 99 6b dd bc
       -0.12901781 0.3115652 -0.06699305 -0.027028846
0002a0 9f 54 3c 3d 7f 25 01 bf b3 aa cb 3d e8 68 8b 3c
       0.04597914 -0.5044784 0.09944668 0.017017797
0002b0 6c 58 04 be db 92 80 be 76 5c f4 bb 14 f7 51 3e
       -0.12924355 -0.25112042 -0.0074573113 0.20504409
0002c0 ae 07 28 be 49 ba 49 3d 19 ba 2f be 45 14 8a 3d
       -0.1640918 0.04924992 -0.17160834 0.06742147
0002d0 84 d9 a1 3e 59 1e 10 be d1 74 ab bd c5 ae a1 be
       0.31611264 -0.14074077 -0.0837189 -0.3157865
0002e0 26 0c d1 3e f5 43 2f 3d 9e a8 d2 3c ac c9 b9 3d
       0.4082958 0.04278942 0.025715169 0.09071669
0002f0 07 c0 6d bd 64 a8 92 3e 65 75 73 3d 43 61 cd bd
       -0.05804446 0.28644097 0.059438128 -0.10028317
000300 fd 92 5d be 3b 15 38 be ba a9 1e 3e 66 d5 a7 be
       -0.21638103 -0.17976849 0.15494433 -0.32779998
000310 13 b7 33 3d 58 27 51 be 0f a0 6d 3d 1a 3c 01 be
       0.043875765 -0.20425165 0.058013972 -0.12620583
000320 db db 53 be bf 2a 9d 3e 94 ec ab bd 8f 12 08 3e
       -0.20689337 0.30696675 -0.08394733 0.1328833
000330 aa e3 5b 3c 80 a4 fe 3b 30 4c cc 3c ed 2c b0 bd
       0.013420979 0.007771075 0.024938673 -0.08602319
000340 0c 83 19 bd f1 df 27 3e 44 c4 41 bc 7a 79 26 be
       -0.03747849 0.1639402 -0.0118265785 -0.16257277
000350 0c 00 73 3b a6 96 04 3e b7 68 41 be 83 53 09 3f
       0.0037078885 0.12948093 -0.18887602 0.53643054
000360 9f b3 ff bd 81 b6 d1 ba 8e 4f b3 bd 27 35 01 3e
       -0.12485432 -0.0015999825 -0.08755408 0.12617932
000370 62 92 08 3e 5a 87 af be fa 68 11 bc 46 e0 97 3d
       0.1333709 -0.34282953 -0.008875126 0.07415824
000380 9f 3f 1a be ac f3 4f 3d 04 96 78 be 51 eb 4f be
       -0.15063332 0.050769493 -0.24275976 -0.2030461
000390 9e 9d 14 be f0 fd fc 3c f1 b2 b4 3e 3d 99 8d bd
       -0.14513251 0.030882806 0.3529277 -0.069139935
0003a0 2d a5 9e be f1 9d 43 be 86 34 9e 3e 99 d5 6f 3e
       -0.30985394 -0.19103219 0.30899447 0.23421325
0003b0 0e 3a 90 bd e7 e6 2d be d4 10 28 bd 7d 7f 5c 3e
       -0.07042323 -0.16982614 -0.041031674 0.21533008
0003c0 71 c2 9e 3d 24 ee 7a 3e a0 22 50 3e 96 47 40 3e
       0.077519305 0.24504906 0.20325708 0.18777308
0003d0 0e f1 1a 3e 3c b8 b7 bd 65 9f 79 3e 2a ec 49 bd
       0.15131018 -0.08970687 0.2437721 -0.04929749
0003e0 4b ec 18 3e 57 e5 02 3e ec 45 5e 3e 45 c3 13 3d
       0.14933889 0.12782799 0.2170636 0.036074895
0003f0 9d 68 8a be 64 46 8e be 58 59 69 be 4b 22 18 3e
       -0.2703294 -0.2778808 -0.22787988 0.14856832

fc1_adv.bias f4 [32]
000000 9f c1 24 bd 99 56 81 3d bc dc 1d be 13 37 1e 3d
       -0.040223714 0.06315345 -0.15416235 0.03862674
000010 b7 54 d6 3a 4b f9 83 bd 8e 48 85 3d f4 a7 cc 3d
       0.0016352151 -0.06444033 0.06507979 0.09992972
000020 6c f1 44 bd 56 fb cb bd 00 54 b1 3d ad 15 e0 bd
       -0.0480818 -0.09960048 0.086586 -0.10941634
000030 ba 97 ef bd a8 cd 50 3d 91 fe f1 3c 21 0a 33 be
       -0.116988614 0.05097738 0.029540332 -0.17484333
000040 75 93 b1 3d 20 c7 01 3e 66 f2 1b be 80 bb 9f 3d
       0.08670703 0.12673616 -0.15229186 0.07799435
000050 8e 4f 2d be ff 70 b5 bc 37 7e a2 bc 88 81 e3 3d
       -0.16924879 -0.022148607 -0.019835575 0.111086905
000060 a0 92 d6 3d eb ce a5 3d 31 68 11 3c 84 c7 53 be
       0.10477185 0.08096107 0.008874939 -0.20681578
000070 9d ab e6 bd c3 0c 28 3e 04 1f 6e bb b5 f4 2e bc
       -0.112632014 0.16411118 -0.0036334405 -0.01067846

fc2_adv.weight f4 [4, 32]
000000 5a b6 0e be e4 aa b4 3d 21 c6 02 be d1 2c b8 bd
       -0.13936749 0.08821657 -0.12770893 -0.08992923
000010 00 94 ac 3e b7 7d a3 3b 65 a8 ff 3d 04 19 9e bb
       0.33706665 0.0049893516 0.124832906 -0.0048247594
000020 96 66 4e 3e 03 6c f9 3d ee 5a 80 3d 97 d9 93 be
       0.20156321 0.12178805 0.062673435 -0.28876945
000030 a8 f5 a4 be a0 a2 30 be 3e 77 a2 3c 04 b6 4f bd
       -0.3221867 -0.17249537 0.01983225 -0.050710693
000040 f3 e3 b6 bd b5 0d be 3d 34 f5 73 be 0e 9d 81 be
       -0.089301966 0.09279958 -0.23824006 -0.25315136
000050 3a 6e e4 bd e3 48 b1 3d 3e 40 51 bd 73 7c 47 be
       -0.111538365 0.0865648 -0.051086657 -0.19481067
000060 ef 17 c1 3d 2f fe 5f 3d 0c 20 3f 3e ef 5b 26 be
       0.09428393 0.054685768 0.18664569 -0.16246007
000070 51 f6 a1 bc ba 29 75 bc 10 20 71 bd 75 43 0e 3e
       -0.019770773 -0.014963562 -0.058868468 0.1389292
000080 ca ed c6 3e 46 fb ce 3c e4 37 17 3f 4d 38 9c 3d
       0.38853294 0.0252663 0.5906966 0.07627926
000090 4c 26 be be 82 30 21 3e 46 40 b9 3d 89 04 a4 3e
       -0.37138593 0.1574116 0.09045462 0.3203471
0000a0 9d 50 95 bd de 1c a2 be 60 a0 3d be 0c 56 03 bd
       -0.072907664 -0.3166265 -0.1851821 -0.032064483
0000b0 be 03 fc 3d 94 8f 08 3e 94 02 0e bd 5e 4b bf 3d
       0.12305401 0.1333602 -0.034670427 0.09340547
0000c0 50 ff 3d be 46 b2 62 3e ba f6 86 bd 31 85 2f bd
       -0.18554425 0.22138318 -0.06590028 -0.04285163
0000d0 f0 f4 b4 3d 5e 3a 07 bd fe 45 b3 be 3a 2a 61 be
       0.088357806 -0.033014648 -0.35014337 -0.21988764
0000e0 26 0e 01 be ea 5a 93 bc 41 be 56 be 2c 96 ce 3d
       -0.12603053 -0.017987687 -0.20971014 0.10087237
0000f0 cd a2 18 3b 27 9c 2b be 06 85 01 3e a9 70 99 be
       0.0023290396 -0.16758786 0.126484 -0.29968765
000100 8a f5 37 be b5 6b 16 3e 2f 55 aa be 09 ba 2c 3e
       -0.1796476 0.14689524 -0.33268115 0.16867842
000110 32 6e 29 bd cf 0b 9f be 72 61 68 3e 63 14 85 be
       -0.041364856 -0.31063697 0.22693422 -0.25992116
000120 76 a3 e2 bd 10 45 b4 3e fb 1f 34 bd 28 ff 71 be
       -0.11066334 0.3520894 -0.04397581 -0.2363249
000130 e7 d4 82 be c8 15 00 3e 1d 31 0c bf 54 28 87 3d
       -0.25553057 0.12508309 -0.5476244 0.06599489
000140 0f 73 0a 3e f8 8e 8d be 04 66 56 3e ff 2a 78 3d
       0.13520454 -0.2764814 0.20937353 0.06058788
000150 fd 38 c0 bd c5 1f 94 3d ba d3 a8 bd ba 9e 1c 3e
       -0.0938587 0.07232622 -0.08243509 0.15294924
000160 9f 95 05 3d f3 a3 d1 bd 8b 38 82 be 90 e2 17 bc
       0.032613393 -0.10236349 -0.25433764 -0.009270325
000170 ee 51 14 be cd b3 ec 3d df d1 8b 3d 64 f5 0a be
       -0.14484379 0.11557732 0.06827139 -0.13570172
000180 9c c5 c5 3d d8 15 84 be 51 2e 9d bd 3d 6e 12 be
       0.096568316 -0.25797915 -0.0767485 -0.14299865
000190 15 90 8d 3e ca 69 91 ba f9 c5 11 be bd 88 08 be
       0.27648988 -0.001109415 -0.14235677 -0.13333412
0001a0 5e 94 98 bc 3a 85 90 3e 6a d0 e8 bd c2 c8 27 3e
       -0.018625434 0.28226644 -0.11367877 0.16385177
0001b0 12 38 c8 3d 66 e2 22 be d8 1c 15 3f 0d f9 04 3e
       0.097763196 -0.15906677 0.5824714 0.1298563
0001c0 b8 29 1d 3d fe 88 f6 3d 4f e0 19 3e d4 f8 7a be
       0.038369864 0.12037848 0.15026973 -0.24508983
0001d0 47 46 0c 3e 9a 0b 34 3d ee 12 9b 3e fc e0 cc 3d
       0.13698684 0.043956377 0.3028788 0.1000385
0001e0 6f be 01 be 01 c2 4c be 8a f8 51 bc a9 8a 00 be
       -0.12670301 -0.19995882 -0.012815604 -0.12552895
0001f0 7c 6d ca 3d ae 86 10 3e 68 04 de bd e1 5b fd bc
       0.09884164 0.14113876 -0.10840684 -0.0309276

fc2_adv.bias f4 [4]
000000 1c f6 44 bd 0c 58 89 bd 2d 6a c8 bd e5 70 15 3d
       -0.04808627 -0.06706247 -0.097858764 0.036484618

fc1_val.weight f4 [32, 32]
000000 7d f8 9b bd d9 1b 25 bd dc 07 12 3e 0e 5d a7 3a
       -0.07615755 -0.04030976 0.1426081 0.0012768821
000010 d7 67 80 3b fc 07 f1 bd 8c d4 50 bc 8d da d3 3d
       0.0039186287 -0.11769101 -0.012745988 0.1034442
000020 34 55 28 be 63 82 76 3c 39 55 ae 3e f7 22 c4 3d
       -0.16438752 0.015045735 0.34049395 0.095769815
000030 38 19 16 be 45 34 60 3a cf 70 13 3e 94 8b 63 3e
       -0.14658058 0.00085527106 0.14398502 0.22221214
000040 bf 9e 0e be 95 1d e2 bd 1f b4 c7 bd 67 fb 83 be
       -0.13927744 -0.110407986 -0.09751152 -0.25777742
000050 c2 6d 87 3d 5a 6a 19 be a2 23 f8 ba 68 29 88 bc
       0.066127315 -0.14981976 -0.0018931518 -0.016621307
000060 b1 d3 2a 3e 26 f6 e9 bb f1 0f 2e 3c af d6 56 3e
       0.16682316 -0.007139939 0.010623918 0.20980333
000070 2a 2a 9d 3d 53 e8 00 bd 7d 2f 63 3e d1 df 15 3e
       0.07674058 -0.03147156 0.22186084 0.1463616
000080 16 2e a8 bd 58 ad 81 be c6 8b 1b bd 20 c7 b5 bd
       -0.08211915 -0.25327563 -0.037975095 -0.08875871
000090 b6 ea 69 bd 9c f0 82 3d 95 5a 2d be fa 3f 6a 3c
       -0.057108603 0.06393549 -0.16929086 0.01429748
0000a0 85 8b c2 be df 85 3f be 8a 9a 95 bd 5e 4d 1e be
       -0.3799707 -0.18703412 -0.073048666 -0.154592
0000b0 d1 6d 2a be 8e 5a 27 3e e9 b6 ae bc ed 8c 8f 3d
       -0.16643454 0.16343138 -0.021327453 0.07009301
0000c0 8d ae 2d 3e f8 96 24 3e 01 ac ea 3b d0 75 d5 be
       0.16961117 0.16073215 0.0071616177 -0.41691446
0000d0 6b 21 91 3d b2 9b 28 3d 59 aa a7 bd 12 b7 8e bd
       0.07086452 0.041164108 -0.08186788 -0.06968512
0000e0 f4 b8 76 be 52 ff e0 3d 64 85 ca bd 68 29 b5 bd
       -0.24093992 0.109861985 -0.098887235 -0.08845788
0000f0 01 65 32 be 03 c6 36 3e 82 47 a6 bd f7 8b 68 3c
       -0.17421342 0.17848973 -0.08119108 0.0141935265
000100 8e 98 f7 bd a6 9c 4f 3e 9c 05 90 bd 86 a7 8c be
       -0.12089644 0.202746 -0.0703232 -0.2747156
000110 1c 92 17 be bc 2b 83 3e fd 5b ad bb 5f 54 21 3d
       -0.1480183 0.25619304 -0.005290507 0.039387103
000120 94 68 55 be 1e e3 02 3e dd 0d d4 bc a0 68 35 bd
       -0.20840675 0.12781951 -0.025885517 -0.04428923
000130 ff 1f 26 3e 59 b0 2c be d5 da 39 3d 98 2d 2c be
       0.16223143 -0.16864146 0.04537471 -0.16814268
000140 b0 7a 45 3d c1 5f 13 be e9 a9 0e bd 7d 1e 54 be
       0.048212707 -0.14391996 -0.034830008 -0.20714755
000150 5b e3 e7 3d 29 d7 2a be dd a8 36 be 69 ae 21 be
       0.113226615 -0.1668364 -0.17837854 -0.15789188
000160 de 19 5e 3e 45 9e 97 be 83 96 e0 3d 7f 24 6f be
       0.21689555 -0.29612938 0.10966208 -0.23353766
000170 54 ac 55 be d2 7d 3c 3e bb 90 e4 bc 43 25 f9 bd
       -0.20866519 0.18407372 -0.027901044 -0.1216531
000180 aa 30 47 bd 00 e1 d9 3d 5f 92 b9 3d f2 21 ac 3e
       -0.048630394 0.106386185 0.09061121 0.33619648
000190 02 cf 89 3d ef 4d d1 bd e5 24 26 3e c5 38 0d 3e
       0.06728937 -0.10219943 0.16225012 0.13791187
0001a0 19 66 06 be 7e 46 ad 3d b9 18 fc 3d 75 4c 5c 3d
       -0.13124885 0.08460711 0.12309403 0.053783853
0001b0 81 5a cd bd a8 f9 8c be fb 43 67 3e 47 3a 99 bc
       -0.10027028 -0.27534223 0.22584526 -0.018704547
0001c0 3d cd 24 3c de 9e b2 bd d7 07 49 3e 25 e4 53 3e
       0.010058698 -0.08721708 0.19631897 0.20692499
0001d0 04 1d 2d 3d 7d c9 77 be 61 40 d8 3c b8 7b 79 bd
       0.042264 -0.24197955 0.026397886 -0.060909003
0001e0 6a 99 cd 3d d0 7f 40 3e 4c 9c 66 3e 46 a3 55 be
       0.10039027 0.18798757 0.2252056 -0.20863065
0001f0 c1 72 3b be 80 71 58 bd b7 e4 34 be 29 28 88 bd
       -0.18305494 -0.052842617 -0.17665373 -0.06648285
000200 5b 5e 13 3d 3c f1 74 bd 4c 4a 0f 3e b4 7c f6 3d
       0.035978656 -0.05980037 0.13993186 0.12035504
000210 62 f6 ca bd d9 84 9b 3e 70 5a 44 3e 37 83 04 3e
       -0.09910275 0.30374792 0.19175124 0.1294068
000220 5b 42 05 be 0e a7 5d 3d f0 fa 8e bd e5 a4 2a 3e
       -0.13013594 0.054114394 -0.06981456 0.16664465
000230 dc 15 8e 3e ae a9 40 3d 38 1c a3 bb 4c 67 dc bd
       0.27751052 0.04703682 -0.004977729 -0.1076189
000240 4b c7 f1 3c be c8 82 3d fe 3d 9e bd 00 e6 4c 3e
       0.029513976 0.06385945 -0.07726668 0.20009613
000250 bb 85 0e 3c 73 14 fc 3d 2b b6 87 3d 34 ea 12 3d
       0.008698876 0.12308588 0.06626543 0.035867885
000260 a1 d3 df 3d 39 63 db bd c5 7d 82 3e 2c ac 3c 3e
       0.10929037 -0.107122846 0.2548658 0.18425053
000270 ae 40 dd 3a fc a1 a9 3e 85 76 97 3d 1d c2 8f 3d
       0.0016880238 0.33131397 0.07395653 0.07019446
000280 81 07 3e 3e 6e e7 22 3c 61 42 55 bd 1e f6 34 3e
       0.1855755 0.009942872 -0.052065257 0.17672011
000290 a3 98 24 be 00 11 03 3e a5 f6 ac 3e 06 1c 2a 3d
       -0.16073851 0.12799454 0.33781925 0.04153063
0002a0 db ab be 3d 29 2d 27 bd 5e a2 81 3d e0 15 95 be
       0.093101226 -0.040814552 0.06329797 -0.29118252
0002b0 94 8b 4b be 33 1d 75 3d 55 2f 2b 3e de a7 8a be
       -0.19877464 0.0598423 0.16717274 -0.27081198
0002c0 80 25 4c bc 23 77 bc 3d bd d4 8e bd 2f 6e 29 3e
       -0.012460113 0.09202411 -0.0697417 0.16545938
0002d0 88 47 82 bd d3 74 0e be dd 36 a1 be 0f be ad bd
       -0.063613 -0.13911752 -0.3148717 -0.084835164
0002e0 b7 71 54 bd 7f 8b 27 3e 82 21 a6 3c ea ab 96 be
       -0.05186626 0.16361807 0.02027965 -0.29428035
0002f0 3c 4d 94 bd 26 10 ee bd 9a c7 e3 bd b6 30 8d be
       -0.07241294 -0.11624174 -0.11122055 -0.27576226
000300 74 bf 27 bc 50 7f e9 3d 54 a1 38 3c d0 8f d4 bb
       -0.010238517 0.11401236 0.011268932 -0.0064868703
000310 49 d7 c5 bd 0b af 08 be 96 2e 60 be 2e 5e 2e 3e
       -0.09660203 -0.13348024 -0.21892771 0.17028114
000320 06 61 d0 bd e2 56 db 3d 8a 5e 25 3e a6 94 b8 bd
       -0.10174756 0.10709931 0.16149345 -0.090127274
000330 ff 76 80 3d ac c9 97 bd 8b be 9f be b5 52 b8 3d
       0.06272697 -0.07411513 -0.3120006 0.0900015
000340 b6 08 ac bc 75 96 68 be b5 9e 14 3d 0b d1 77 be
       -0.021000247 -0.22713645 0.036284167 -0.24200837
000350 81 82 d3 bc 9f c9 86 3e c1 08 9b 3e a8 3a c3 bc
       -0.025819065 0.263257 0.30280116 -0.02383168
000360 6b 01 80 3d c1 ba 34 be a1 ae bf 3d e4 a3 16 3e
       0.062502705 -0.17649366 0.0935948 0.14710957
000370 7c 28 9c bd 1b 1b 36 be 46 4d bc bd 46 b2 0a 3e
       -0.07624909 -0.17783777 -0.09194426 0.13544568
000380 b9 46 a6 bb 9e 8b d6 bd ce bc 9a 3c a5 71 c3 bc
       -0.0050743488 -0.104758486 0.018888857 -0.0238579
000390 e3 d8 1a 3e d9 10 bf be e5 8c 42 be 89 ca 84 bb
       0.15121798 -0.3731754 -0.1899906 -0.0040524644
0003a0 97 bd 61 be 4d 69 59 3e 12 07 fa bd 43 80 10 3d
       -0.22044979 0.21231575 -0.1220838 0.03527857
0003b0 c6 d1 04 3e 34 ab 17 be 5d e8 08 be 79 e8 17 3e
       0.12970647 -0.14811403 -0.1336989 0.14834775
0003c0 54 68 21 be 90 32 32 be 68 d7 dd 3c 26 8b 7c be
       -0.15762454 -0.174021 0.027080253 -0.24662456
0003d0 af a6 70 be 41 99 51 3e dc 29 9b 3e cb 0d f2 3d
       -0.23501085 0.20468618 0.30305374 0.11819037
0003e0 f8 9c a8 bd 5e bf 49 3d 31 f9 63 3d 71 58 cd bd
       -0.082330644 0.049254768 0.05565757 -0.100266345
0003f0 64 ee 4d 3c 5e c8 ed 3d 8b 19 22 3e 70 9c 83 bd
       0.012569044 0.11610483 0.15830056 -0.064263225

fc1_val.bias f4 [32]
000000 fc 2d 5c 3c 9e 54 05 3c eb 6b a4 bd c9 42 8c bd
       0.013438698 0.00813785 -0.08028396 -0.06848676
000010 49 08 ec bd 70 97 b8 3d 0d a7 4c 3e af ba 8f 3e
       -0.11525018 0.090132594 0.199856 0.28072116
000020 28 d3 38 3e 78 e3 a1 bb c2 68 11 bc 9e 07 0d 3d
       0.180493 -0.0049404465 -0.008875074 0.034431092
000030 35 dc de bd 9f 36 6e 3e ae 53 cd 3d 6d 9c 78 3e
       -0.10881845 0.23263024 0.10025726 0.24278422
000040 0e 81 5b 3e 2d d0 cb bd ed af 11 be b6 cf 81 3d
       0.21435949 -0.09951816 -0.14227267 0.06338446
000050 34 07 c3 bd d1 4f a5 3d ff ca bc bd db 51 d3 3d
       -0.09522858 0.080718644 -0.09218406 0.10318347
000060 72 74 8b bd 9d 3b 9c bd dc 4e 44 be aa 12 d6 3d
       -0.068093196 -0.07628558 -0.19170707 0.10452779
000070 22 72 7b 3e 5f 23 3c 3b 94 7f 2d 3e 4b 82 3e 3e
       0.24555257 0.0028707606 0.16943198 0.1860439

fc2_val.weight f4 [1, 32]
000000 36 f8 a5 3e 24 54 ce bd 2e ae 8f be 5a 11 48 be
       0.32415932 -0.10074642 -0.28062576 -0.19537869
000010 4d 33 6a be 87 7d ee bd e4 f7 10 3e 35 04 71 3e
       -0.22871132 -0.11645036 0.14157063 0.23536761
000020 3f c5 ee 3d db 7d 9e 3d 16 cc b2 be 2b 2c 3b bd
       0.116587155 0.07738849 -0.3492133 -0.04569642
000030 6e 84 2e 3e b6 9b 0a 3e 0e 67 ba bd 67 51 02 3e
       0.17042705 0.13535962 -0.09101687 0.12726365
000040 ce 52 44 3e b2 f3 d1 3d 02 59 ea 3d 4f 09 33 3e
       0.19172212 0.10251559 0.11442758 0.1748402
000050 d3 ef 9c 3e e1 16 7a 3d 41 fa 81 3e 37 97 e5 3d
       0.3065172 0.061056975 0.2538624 0.112104826
000060 f4 27 8b be eb 8e 4e 39 cd 9e 3c be ab 46 2c 3e
       -0.2717892 0.00019698932 -0.18419953 0.16823833
000070 08 e1 4d 3e 51 01 d0 3e 73 dc 85 3e 3e 3b 6c 3e
       0.20105374 0.40626004 0.26144752 0.23069474
