models/nd.pth (torch_old, 55655 bytes, 20 tensors)

fc1.weight f4 [64, 37]
0.16196893 -0.04918366 -0.20068307 -0.21189505 -0.32253766 0.09476886 -0.17382267 0.0908695
-0.031453505 -0.22178896 -0.18743636 -0.0043375585 -0.09843131 -0.14302796 -0.34572518 -0.237705
0.17321579 0.078202896 -0.15472075 0.17795074 0.16931994 0.061179344 -0.049835067 -0.095958486
-0.14069617 0.045392178 0.101962455 -0.14831027 -0.19023323 -0.29745314 -0.012253911 0.049891498
-0.09565269 -0.2645216 -0.107297584 -0.22201794 -0.08383347 0.1039767 0.08796658 0.059320647
0.029019488 -0.24139942 -0.0508097 -0.03491172 0.032627758 -0.55229694 -0.9623213 0.10500841
-0.06066811 0.007858337 -0.012802706 0.031384483 -0.123926274 0.045338623 0.24003592 0.015155568
-0.08354091 -0.27418315 -0.049308952 0.022948006 -0.073180996 -0.0915291 -0.33075222 0.1692269
0.28229645 -0.11238733 -0.25414905 -0.15618485 0.21263747 0.24410278 -0.0223218 -0.09880307
0.015537818 0.07195431 0.09178153 0.07868606 0.08567371 0.2313821 0.21274006 -0.28579688
-0.0068988414 0.3176093 0.14338961 -0.19368698 0.17664447 0.010489677 -0.18402435 0.10724599
0.013459137 -0.22260796 0.27445176 0.012230876 0.3540316 -0.12643276 -0.08284834 -0.023576554
0.018120304 0.22029045 -0.12389698 -0.31991333 0.17047015 0.25848773 0.019645063 -0.37775615
-0.04609993 0.05805534 -0.024489202 -0.222497 -0.04223483 0.059586868 -0.05186988 0.1539375
-0.12789936 0.19573794 -0.061191164 -0.24757737 -0.016363874 0.10666918 -0.02863662 0.044001788
0.047125045 0.07469014 -0.021511946 -0.050112147 -0.27302995 -0.30686542 -0.09262778 0.14099284
-0.083612755 -0.35825378 -0.11668942 0.22991268 -0.23928307 -0.36612055 0.21785615 -0.34813914
0.037166707 0.0812611 -0.31585407 0.31138712 -0.055334143 0.008080791 0.25342166 -0.015303458
-0.05042538 -0.14250997 0.0763189 0.0026501983 -0.16551478 -0.17881463 -0.11446374 0.08175679
0.004368012 0.28624263 -0.07621682 -0.38082442 -0.15447955 -0.6951757 -0.17067602 -0.025516922
-0.04071662 0.15614504 -0.16605678 -0.20909572 -0.01039868 0.08555376 -0.026271015 0.27850404
-0.13487785 0.037524685 0.021427644 0.10787344 0.23090155 0.04684723 -0.08367895 0.10362549
0.06830196 0.24648315 0.09110087 -0.028112212 -0.1118633 0.1782364 0.47868115 0.076097175
0.03200412 0.116099596 -0.03726384 -0.13484776 -0.15960233 0.048585784 0.29152605 -0.22434683
-0.4715887 -0.2546486 -0.96016634 -0.17877635 -0.16008075 0.08314064 0.06843429 0.06695633
0.0339596 0.085287385 -0.1574197 -0.18502213 -0.10539714 0.0015827307 -0.09989954 0.21120407
0.14314345 0.05526815 0.036683958 -0.06357311 -0.009868368 -0.018157238 -0.036051113 0.048376936
-0.11486878 -0.08938018 0.03812425 -0.09976811 0.0020609456 0.079474844 0.2218139 -0.11608746
-0.0990842 -0.009890187 0.058071572 -0.08956005 0.037206642 0.041742545 -0.00045553566 0.2843932
0.013751611 0.21649481 0.14213829 -0.34620097 0.24090284 -0.09208269 -0.24763374 0.19649944
0.2300159 0.40733612 0.004443668 -0.018096989 0.04523465 -0.008655399 0.14543033 -0.09998267
-0.19548663 0.0672156 0.07892559 0.2003499 0.32482123 -0.08802109 -0.2763235 0.035141952
00000000: 2fdb 253e ce74 49bd dd7f 4dbe 04fb 58be
00000010: a823 a5be 2d16 c23d 92fe 31be ca19 ba3d
00000020: 64d5 00bd a51c 63be 51ef 3fbe 1422 8ebb
00000030: 5b96 c9bd ec75 12be e402 b1be f168 73be
00000040: 7b5f 313e d728 a03d 1e6f 1ebe b838 363e
00000050: 3562 2d3e 3197 7a3d db1f 4cbd e285 c4bd
00000060: a812 10be 26ed 393d b1d1 d03d a6de 17be
00000070: 80cc 42be c74b 98be a1c4 48bc 075b 4c3d
00000080: 8fe5 c3bd 606f 87be d6be dbbd ac58 63be
00000090: e2b0 abbd bcf1 d43d d327 b43d 35fa 723d
000000a0: 47ba ed3c 6931 77be d51d 50bd 97ff 0ebd
000000b0: afa4 053d 5563 0dbf b05a 76bf a60e d73d
000000c0: 207f 78bd 41c0 003c 71c2 51bc 048d 003d
000000d0: 0fcd fdbd feb4 393d facb 753e 0f4f 783c
000000e0: 7f17 abbd bc61 8cbe 2ff8 49bd 75fd bb3c
000000f0: ebdf 95bd 9c73 bbbd 5b58 a9be d149 2d3e
00000100: 2989 903e 542b e6bd d31f 82be ecee 1fbe
00000110: a3bd 593e 14f6 793e 35dc b6bc 4459 cabd
00000120: 5592 7e3c c85c 933d f4f7 bb3d 2826 a13d
00000130: b375 af3d 6eef 6c3e 88d8 593e f853 92be
00000140: ad0f e2bb b09d a23e bad4 123e e155 46be
00000150: 4ae2 343e e5dc 2b3c e170 3cbe c9a3 db3d
00000160: b683 5c3c 57f3 63be f184 8c3e 0364 483c
00000170: a143 b53e 9777 01be 64ac a9bd 9e23 c1bc
00000180: 0871 943c d293 613e b3bd fdbd aecb a3be
00000190: ba8f 2e3e 8158 843e afee a03c 4169 c1be
000001a0: 48d3 3cbd 70cb 6d3d 949d c8bc 41d6 63be
000001b0: 6efe 2cbd 5c11 743d 8375 54bd cba1 1d3e
000001c0: 0df8 02be 876f 483e 96a3 7abd ec84 7dbe
000001d0: 880d 86bc 5f75 da3d 5897 eabc 383b 343d
000001e0: 3106 413d 25f7 983d d239 b0bc 6542 4dbd
000001f0: 95ca 8bbe 771d 9dbe a2b3 bdbd 6d60 103e
00000200: 2a3d abbd 0a6d b7be ddfa eebd 3b6e 6b3e
00000210: 9f06 75be 2774 bbbe af15 5f3e 4b3f b2be
00000220: 1e3c 183d 386c a63d a0b7 a1be 226e 9f3e
00000230: 0ea6 62bd 4b65 043c 7cc0 813e 5bbb 7abc
00000240: d88a 4ebd 22ee 11be 154d 9c3d f3ae 2d3b
00000250: b57c 29be 2f1b 37be f76b eabd 1b70 a73d
00000260: 8a21 8f3b 658e 923e 9017 9cbd 6bfb c2be
00000270: e32f 1ebe 09f7 31bf b2c5 2ebe dd08 d1bc
00000280: 78c6 26bd 7ce4 1f3e ca0a 2abe 301d 56be
00000290: 3a5f 2abc cf36 af3d 5036 d7bc 1598 8e3e
000002a0: 6b1d 0abe 7cb3 193d 0789 af3c c0ec dc3d
000002b0: 7571 6c3e e2e2 3f3d df5f abbd 9a39 d43d
000002c0: e6e1 8b3d 1466 7c3e 1893 ba3d 954b e6bc
000002d0: 9618 e5bd 9a83 363e b215 f53e d6d8 9b3d
000002e0: c116 033d a0c5 ed3d f8a1 18bd 8815 0abe
000002f0: cb6e 23be e301 473d e742 953e 2dbb 65be
00000300: 1374 f1be 4d61 82be 76cd 75bf 2611 37be
00000310: 35ec 23be a445 aa3d 4727 8c3d 6620 893d
00000320: 3919 0b3d 27ab ae3d a132 21be 7176 3dbe
00000330: 75da d7bd a173 cf3a 2198 ccbd e145 583e
00000340: 3294 123e db60 623d eb41 163d 9e32 82bd
00000350: efae 21bc 7dbe 94bc 55aa 13bd e526 463d
00000360: 5340 ebbd f50c b7bd 2c28 1c3d 3953 ccbd
00000370: ee10 073b b5c3 a23d 2f23 633e 43bf edbd
00000380: a8ec cabd 730a 22bc 75dc 6d3d 426b b7bd
00000390: fe65 183d 3bfa 2a3d f6d4 eeb9 fc9b 913e
000003a0: 704e 613c d1b0 5d3e b38c 113e 4141 b1be
000003b0: 3caf 763e d995 bcbd b393 7dbe 2637 493e
000003c0: 4a89 6b3e 5c8e d03e 309c 913b 2340 94bc
000003d0: f847 393d 60cf 0dbc b0eb 143e b7c3 ccbd
000003e0: a62d 48be 55a8 893d bda3 a13d 8628 4d3e
000003f0: f84e a63e 6744 b4bd 467a 8dbe 02f1 0f3d

fc1.bias f4 [64]
0.119653165 -0.035769254 -0.10123268 -0.053949375 0.15181465 -0.041350618 -0.040136937 0.03693815
0.009489906 -0.15385546 0.13249852 0.124566 0.16758795 0.10596513 -0.07006286 -0.09161647
0.043929983 -0.048849404 0.014265858 -0.16482738 -0.097229235 0.016653022 0.01352269 -0.087349996
-0.16452238 0.1609652 0.016740553 -0.13844332 0.13678804 0.09242149 -0.090924956 -0.12385742
0.14315644 -0.019543495 -0.111065 0.056928664 -0.029611249 0.043964475 -0.07524305 -0.14332284
-0.1302823 0.0030004317 0.0029767416 0.09689548 0.079503566 -0.21031554 -0.045787923 -0.17884481
-0.12451496 0.06595579 -0.14578213 0.10108088 -0.048284005 -0.08554578 -0.18509555 0.03249063
0.11922869 -0.10151837 -0.09267113 -0.122291006 0.035594765 0.038454086 -0.014377819 0.0348899
00000000: b80c f53d c882 12bd 1453 cfbd 05fa 5cbd
00000010: 4d75 1b3e 445f 29bd a166 24bd 754c 173d
00000020: 8d7b 1b3c 498c 1dbe b1ad 073e 761c ff3d
00000030: 2d9c 2b3e 3f04 d93d 1e7d 8fbd 6aa1 bbbd
00000040: edef 333d 5016 48bd 58bb 693c 82c8 28be
00000050: 1f20 c7bd eb6b 883c 468e 5d3c 8ee4 b2bd
00000060: 8e78 28be 10d4 243e 7c23 893c 16c4 0dbe
00000070: 2a12 0c3e 7a47 bd3d dd36 babd f6a8 fdbd
00000080: 9a97 123e ae19 a0bc 0c76 e3bd 082e 693d
00000090: 4a93 f2bc 1814 343d 0719 9abd 39c3 12be
000000a0: b968 05be e4a2 443b 7015 433b 2371 c63d
000000b0: c4d2 a23d f55c 57be 1e8c 3bbd 1823 37be
000000c0: b301 ffbd d413 873d e947 15be 7e03 cf3d
000000d0: 73c5 45bd a032 afbd b089 3dbe e514 053d
000000e0: 2c2e f43d dde8 cfbd 5dca bdbd b573 fabd
000000f0: d1cb 113d 0882 1d3d f290 6bbc b6e8 0e3d

fc2.weight f4 [64, 64]
0.106905855 0.066216975 -0.17022654 0.20335062 0.143669 -0.2107906 -0.08032037 -0.041726317
0.0025269936 0.061361797 -0.061828196 0.021648014 -0.15022966 0.16215345 0.0029392415 -0.07772495
-0.084941626 -0.176183 0.10271646 0.09602896 -0.100022405 0.104894556 0.21811496 -0.014538368
-0.208855 0.037468813 0.19703516 -0.31035924 0.019192966 0.07025972 -0.044485297 -0.23475964
0.008205298 -0.043577705 -0.10237319 -0.07499306 -0.06649529 0.15451832 0.2523908 -0.28731874
-0.20769559 0.066745155 0.010229248 -0.06715131 0.049569335 -0.010341263 -0.058727175 0.005056294
-0.306847 -0.038441792 0.07540199 0.018679908 -0.03700715 -0.10713571 -0.09506926 -0.1604553
0.03503768 0.0863771 -0.11905975 0.15567464 0.10257753 0.1074376 -0.17429402 0.083223574
0.26100656 -0.031852443 0.11025381 0.16135369 0.017284285 0.060093794 -0.2831153 -0.03714819
-0.10621523 -0.2961366 0.051816292 0.15293626 -0.23318009 0.07770415 -0.21571039 -0.23141886
0.101964794 0.023270478 -0.008865673 -0.21445826 -0.10844658 -0.2914823 0.06399207 -0.23014489
-0.11527478 -0.0023941763 -0.24739523 -0.30850637 0.095518045 0.020659419 -0.18698697 -0.29797035
-0.09325605 0.061654955 -0.26818773 0.042563166 0.074427284 0.03342224 0.16153945 -0.20572402
0.07787321 -0.072797626 -0.050913565 -0.19690284 -0.080475815 -0.19845138 -0.17818716 -0.1765364
-0.13896719 -0.08785803 0.044963725 0.108332686 0.07807094 -0.042405326 0.07707663 -0.038138162
-0.09297605 -0.14499378 0.07785313 0.17142594 -0.15085626 -0.055399027 0.09569016 -0.1472759
-0.048232537 -0.09526417 0.0705426 -0.11792735 0.0625148 0.070632316 -0.16704406 -0.02892915
0.03696508 -0.029318234 0.06882618 0.041936092 -0.034892686 0.10041231 -0.008639531 -0.03984672
-0.08807538 0.084565915 0.09306042 0.025562441 -0.14909528 0.17650963 0.010333086 -0.12277466
-0.10981357 0.040872954 0.15996818 0.055780813 0.0064658727 0.24851328 0.12449217 -0.041837465
-0.14266215 -0.11144685 -0.053756576 0.12701176 0.12145836 -0.0012650576 -0.06370142 -0.082640976
0.34915718 -0.21620502 -0.092718214 -0.15639473 -0.042994183 -0.091922194 0.039100714 -0.035750348
-0.019102748 -0.23807776 -0.108080894 0.02311528 -0.15316054 0.008462974 -0.33322346 -0.045299795
-0.0267941 -0.19565216 0.109731466 0.13008 -0.16626194 0.06033207 -0.027338544 0.03239474
-0.0917545 -0.23082846 -0.0623022 -0.072222 -0.058709428 -0.016429113 -0.0023875963 -0.23403728
-0.14845888 -0.2205064 -0.08410866 0.16281117 -0.24637565 0.18140517 -0.11132676 -0.22986722
-0.19225007 -0.09413727 -0.11849697 -0.28454453 -0.3782962 0.19187468 0.032373067 0.12695596
0.015447477 0.09883573 0.1185758 -0.023681903 0.19260353 -0.14540556 -0.06155821 -0.05321386
-0.31207505 0.04548884 0.047989786 -0.01896851 -0.08900278 0.11235891 0.0657928 0.03366697
0.24559939 0.026562892 0.06259892 -0.06609143 0.0808212 0.1497452 -0.20240946 -0.22488105
0.08102356 -0.025911048 -0.3178175 0.067107044 0.21758768 -0.29674253 -0.12885202 0.04472059
-0.23995978 -0.060887855 -0.17628922 0.14713782 -0.3670718 0.0054138107 -0.28658617 -0.06739518
00000000: 75f1 da3d c49c 873d de4f 2ebe 253b 503e
00000010: f71d 133e 7ed9 57be 027f a4bd 37e9 2abd
00000020: eb9b 253b 8256 7b3d 903f 7dbd 2d57 b13c
00000030: ced5 19be 8e0b 263e 4aa0 403b 422e 9fbd
00000040: e0f5 adbd 5169 34be 025d d23d d5aa c43d
00000050: 8cd8 ccbd f5d2 d63d 8759 5f3e 5632 6ebc
00000060: 16de 55be e678 193d 96c3 493e 68e7 9ebe
00000070: 913a 9d3c 54e4 8f3d 3736 36bd d564 70be
00000080: 846f 063c 897e 32bd 09a9 d1bd f695 99bd
00000090: af2e 88bd 0d3a 1e3e 5e39 813e 711b 93be
000000a0: 27ae 54be afb1 883d 9398 273c a086 89bd
000000b0: 3709 4b3d 676e 29bc e88b 70bd 45af a53b
000000c0: 0d1b 9dbe 2475 1dbd 5c6c 9a3d 9b06 993c
000000d0: cf94 17bd f869 dbbd acb3 c2bd 654e 24be
000000e0: ac83 0f3d 7ae6 b03d 99d5 f3bd 2c69 1f3e
000000f0: 2b14 d23d 3f08 dc3d 227a 32be 1f71 aa3d
00000100: a7a2 853e b577 02bd c0cc e13d e739 253e
00000110: c697 8d3c e924 763d 7df4 90be b328 18bd
00000120: 5f87 d9bd 379f 97be 523d 543d 539b 1c3e
00000130: c3c6 6ebe 5a23 9f3d 2fe3 5cbe 11f9 6cbe
00000140: ebd2 d03d bba1 be3c 5441 11bc f29a 5bbe
00000150: 3e19 debd 2b3d 95be 460e 833d 1aab 6bbe
00000160: 2f15 ecbd 9de7 1cbb 2d55 7dbe 8cf4 9dbe
00000170: f79e c33d f13d a93c 8379 3fbe 928f 98be
00000180: 07fd bebd e889 7c3d e74f 89be b756 2e3d
00000190: 556d 983d c2e5 083d 996a 253e 51a9 52be
000001a0: fd7b 9f3d ec16 95bd be8a 50bd e6a0 49be
000001b0: 81d0 a4bd d736 4bbe b276 36be f5c5 34be
000001c0: 6a4d 0ebe e9ee b3bd e22b 383d 87dd dd3d
000001d0: a8e3 9f3d 35b1 2dbd 5ada 9d3d c336 1cbd
000001e0: 3a6a bebd 4079 14be 7671 9f3d 488a 2f3e
000001f0: 107a 1abe 17ea 62bd 34f9 c33d 7ecf 16be
00000200: 7b8f 45bd dc19 c3bd a378 903d e583 f1bd
00000210: c207 803d ada7 903d 990d 2bbe d3fc ecbc
00000220: b268 173d cb2c f0bc bef4 8c3d 2ec5 2b3d
00000230: a2eb 0ebd f8a4 cd3d d28c 0dbc 5036 23bd
00000240: dd60 b4bd e530 ad3d 7696 be3d 5368 d13c
00000250: 6fac 18be f1be 343e 1b4c 293c 4871 fbbd
00000260: f0e5 e0bd 666a 273d b3ce 233e 6c7a 643d
00000270: acdf d33b 447a 7e3e c0f5 fe3d c35d 2bbd
00000280: 0716 12be 3f3e e4bd db2f 5cbd 5f0f 023e
00000290: 29bf f83d 4ad0 a5ba e475 82bd ac3f a9bd
000002a0: bbc4 b23e d964 5dbe 0ce3 bdbd f125 20be
000002b0: ab1a 30bd b441 bcbd 1228 203d f56e 12bd
000002c0: 5e7d 9cbc a8ca 73be 8459 ddbd 415c bd3c
000002d0: 1ed6 1cbe 49a8 0a3c 449c aabe 478c 39bd
000002e0: 4d7f dbbc 0a59 48be e4ba e03d b133 053e
000002f0: 9240 2abe c31e 773d 15f5 dfbc 59b0 043d
00000300: c9e9 bbbd 4c5e 6cbe 9730 7fbd 21e9 93bd
00000310: 4c79 70bd 5996 86bc 3879 1cbb 78a7 6fbe
00000320: 9b05 18be 6ecc 61be 2941 acbd f9b7 263e
00000330: e649 7cbe 47c2 393e 49ff e3bd 5062 6bbe
00000340: 34dd 44be 0acb c0bd 8aae f2bd d2af 91be
00000350: 0ab0 c1be cc7a 443e 9f99 043d be00 023e
00000360: 6a17 7d3c 636a ca3d ded7 f23d 8d00 c2bc
00000370: dc39 453e 32e5 14be 7624 7cbd c7f6 59bd
00000380: 4dc8 9fbe 8252 3a3d f090 443d d963 9bbc
00000390: 1747 b6bd 6e1c e63d 60be 863d 60e6 093d
000003a0: 687e 7b3e 6c9a d93c dd33 803d f25a 87bd
000003b0: 9685 a53d ce56 193e 6d44 4fbe 3847 66be
000003c0: aeef a53d 6843 d4bc fab8 a2be 6b6f 893d
000003d0: 4ecf 5e3e a3ee 97be c9f1 03be f02c 373d
000003e0: 04b8 75be 8b65 79bd 2985 34be 4cab 163e
000003f0: d6f0 bbbe 5666 b13b 6cbb 92be 7c06 8abd

fc2.bias f4 [64]
0.010778729 -0.02789438 0.013187832 0.08553687 0.16555904 -0.18232945 -0.092617124 0.11113374
0.0016147846 0.15196872 -0.055849236 0.10566194 0.1112621 -0.015286102 -0.123330295 0.078231655
0.100520335 -0.1001207 -0.005245557 0.080775715 0.06059584 0.041605055 -0.06916753 -0.005643856
-0.07262824 -0.14212154 0.07499705 -0.05153717 -0.101168856 0.13384397 0.15501888 -0.08391113
-0.008643349 0.068920225 -0.005640641 -0.032483082 -0.10800657 -0.11058882 0.14455506 -0.13347143
-0.15405102 0.09524841 0.047592804 0.017474374 0.028304718 -0.07872372 -0.059591006 -0.08849285
0.118258625 -0.07863505 -0.04104992 0.15761243 -0.009141574 -0.047214866 0.025588159 -0.13913673
-0.190096 -0.11122013 0.039727915 -0.07686333 0.091655746 0.106279194 0.14025195 -0.13882995
00000000: 4499 303c c182 e4bc c711 583c f42d af3d
00000010: 4f88 293e 92b4 3abe 0cae bdbd 169a e33d
00000020: 2ea7 d33a b09d 1b3e 2bc2 64bd 4a65 d83d
00000030: 62dd e33d 8f72 7abc 9894 fcbd eb37 a03d
00000040: 9bdd cd3d 150c cdbd ece2 abbb bd6d a53d
00000050: 5833 783d 106a 2a3d b5a7 8dbd 18f0 b8bb
00000060: 1dbe 94bd 4f88 11be 0e98 993d a418 53bd
00000070: 9e31 cfbd 650e 093e 45bd 1e3e 99d9 abbd
00000080: d59c 0dbc 0c26 8d3d 20d5 b8bb fb0c 05bd
00000090: 8c32 ddbd 647c e2bd 3e06 143e bcac 08be
000000a0: 8dbf 1dbe 9911 c33d acf0 423d 6b26 8f3c
000000b0: 4cdf e73c e739 a1bd b315 74bd bd3b b5bd
000000c0: 9431 f23d 6a0b a1bd f623 28bd 2765 213e
000000d0: 8ac6 15bc 6064 41bd 429e d13c dc79 0ebe
000000e0: 87a8 42be 61c7 e3bd bdb9 223d 866a 9dbd
000000f0: 02b6 bb3d e8a8 d93d 359e 0f3e 7029 0ebe

fc3.weight f4 [32, 64]
-0.036511526 0.064598024 -0.01089176 -0.08820666 0.02126536 -0.07877838 0.10618545 -0.17037438
-0.0014940123 -0.045265123 -0.13169384 0.043944195 -0.051405247 0.003027447 -0.03816241 -0.12633461
-0.028147103 0.045410372 -0.012031433 -0.002634958 0.03123023 -0.04426008 -0.026469614 -0.053306937
-0.13561468 -0.08233678 -0.14001223 -0.17017542 0.017896926 -0.045080967 -0.14995146 0.03190781
0.036098197 -0.00048135835 -0.04728414 -0.029142486 0.056138832 -0.12455696 0.009189341 0.019075748
0.065202184 -0.052500155 -0.08692195 -0.034926027 0.006043876 -0.004196897 0.04751225 0.058296435
-0.07738589 0.057686456 -0.07287988 0.0073885666 0.057829797 -0.07609068 0.008355447 -0.03873532
-0.122828215 -0.03308671 0.08263189 -0.034117177 -0.09296364 0.09538254 -0.007003767 0.10669248
0.1386281 0.0902614 0.058388244 -0.11438699 0.02226864 -0.04781679 -0.068979144 -0.017652115
-0.29487872 -0.039266888 0.1490948 0.17015696 -0.27858046 -0.16322003 -0.029554393 -0.01805515
-0.06434128 -0.0022556107 -0.21489018 0.0037977882 -0.14725128 -0.0048740474 -0.067245595 0.10899382
-0.16196534 -0.06814684 0.02953723 -0.07189943 -0.15954079 0.10140082 0.08319838 -0.025264168
0.046383277 0.013199053 0.06859635 0.15676527 0.20061809 -0.08389788 -0.072263464 0.0036956286
0.19643489 0.15492791 -0.10893113 0.07083403 -0.1714832 -0.113899015 -0.0793745 -0.10531283
0.053788558 -0.08084951 0.09386252 -0.0033501945 0.19387221 -0.12365402 0.031538207 -0.03821884
-0.1503974 -0.16017307 0.026850495 -0.14470758 -0.083513685 0.069011174 -0.13655557 0.015463976
-0.020581046 0.2201491 -0.00678538 0.08774767 0.12745799 0.06673152 -0.13269348 -0.018741854
0.16509454 -0.108465105 -0.09949953 0.13952573 -0.09127073 -0.067674994 -0.06175746 -0.0072321706
0.12949964 -0.024317998 -0.35069096 -0.061282434 -0.018678272 -0.113945745 -0.08289008 -0.04481411
0.14442702 -0.041015975 0.07719856 0.0010041269 -0.06740609 0.03776895 -0.120311014 -0.08523836
-0.015989024 0.041552655 0.017670427 0.08981261 0.10411529 -0.120530695 -0.24642035 -0.075891495
0.054542214 0.09982912 0.028333714 -0.05265332 -0.06015945 -0.08973396 -0.31712365 0.03908079
0.18202424 -0.14978896 0.05301815 0.040569663 0.03492576 -0.1757842 0.053519532 0.07471435
0.056735694 -0.18193513 -0.14651349 0.024435217 -0.09205623 -0.034965053 -0.34249064 -0.009939622
-0.028658416 -0.13625395 -0.15826924 0.036288407 -0.07394811 -0.088758394 -0.09731766 0.036329176
-0.04117847 0.22432241 0.036691137 -0.0064485064 0.3930515 0.042673193 0.05926323 -0.42773563
0.22033407 -0.005985886 -0.060317945 0.17307831 0.18463281 -0.13213536 -0.3029286 0.0033900514
0.019167382 -0.084297955 0.048815187 -0.13182852 -0.09584374 -0.116461135 -0.15463206 0.022648435
-0.3348168 -0.26657507 -0.2106122 0.021750145 -0.096880116 0.063453 0.08365254 0.034163784
-0.11801344 0.063258044 0.049776595 -0.15916082 0.14556278 -0.13059771 0.24030285 -0.17553559
-0.12239888 -0.10592813 -0.070201516 -0.051321987 -0.07130413 -0.10441371 -0.04895338 0.22000763
-0.093589 -0.47184888 -0.22425109 -0.17104645 -0.2876887 0.09683632 0.050639853 -0.00089368224
00000000: 1c8d 15bd f84b 843d 5a73 32bc b1a5 b4bd
00000010: b134 ae3c 8f56 a1bd c277 d93d 9f76 2ebe
00000020: bcd2 c3ba ec67 39bd c0da 06be d4fe 333d
00000030: 4f8e 52bd 2268 463b 3050 1cbd dc5d 01be
00000040: c194 e6bc 3a00 3a3d 7d1f 45bc 42af 2cbb
00000050: 8ad6 ff3c 0f4a 35bd ced6 d8bc 6058 5abd
00000060: 93de 0abe 30a0 a8bd 5e5f 0fbe 7742 2ebe
00000070: 939c 923c d2a6 38bd e08c 19be c4b1 023d
00000080: b4db 133d d35e fcb9 04ad 41bd 39bc eebc
00000090: d5f1 653d b817 ffbd e48e 163c be44 9c3c
000000a0: b988 853d 670a 57bd 2304 b2bd 980e 0fbd
000000b0: b50b c63b 2086 89bb 349c 423d 3ec8 6e3d
000000c0: 7e7c 9ebd a248 6c3d 0c42 95bd ca1b f23b
000000d0: f0de 6c3d 6ed5 9bbd 49e5 083c eda8 1ebd
000000e0: 5c8d fbbd ee85 07bd e93a a93d 74be 0bbd
000000f0: b963 bebd ec57 c33d db7f e5bb 9681 da3d
00000100: 86f4 0d3e f8da b83d 8328 6f3d ba43 eabd
00000110: b96c b63c 8adb 43bd f044 8dbd 2b9b 90bc
00000120: 58fa 96be 51d6 20bd 4fac 183e a03d 2e3e
00000130: 19a2 8ebe 2723 27be 0e1c f2bc 65e8 93bc
00000140: 5cc5 83bd ded2 13bb 2c0c 5cbe 50e4 783b
00000150: 0ac9 16be 79b6 9fbb 0fb8 89bd 2738 df3d
00000160: 3eda 25be 9290 8bbd 10f8 f13c 0240 93bd
00000170: a95e 23be 3cab cf3d ea63 aa3d cdf6 cebc
00000180: 64fc 3d3d d740 583c 3e7c 8c3d 1387 203e
00000190: d46e 4d3e a7d2 abbd defe 93bd 5c32 723b
000001a0: 3a26 493e 6ca5 1e3e 4917 dfbd 6f11 913d
000001b0: 4b99 2fbe e343 e9bd 198f a2bd 41ae d7bd
000001c0: 6451 5c3d 6e94 a5bd fe3a c03d f08e 5bbb
000001d0: 7086 463e 523e fdbd 352e 013d 5c8b 1cbd
000001e0: c701 1abe 6904 24be 92f5 db3c 392e 14be
000001f0: 3909 abbd bb55 8d3d 39d5 0bbe 9e5c 7d3c
00000200: 9599 a8bc c46e 613e e557 debb 0db5 b33d
00000210: 5984 023e 89aa 883d cde0 07be 8488 99bc
00000220: 8b0e 293e f422 debd 69c6 cbbd d5df 0e3e
00000230: 26ec babd 3099 8abd 64f5 7cbd d8fb ecbb
00000240: 8e9b 043e 8a36 c7bc c48d b3be 4a03 7bbd
00000250: 2d03 99bc 635c e9bd 46c2 a9bd 008f 37bd
00000260: ade4 133e 5e00 28bd 471a 9e3d e89c 833a
00000270: 340c 8abd 9db3 1a3d 9f65 f6bd 7391 aebd
00000280: 6afb 82bc 1e33 2a3d 92c1 903c acef b73d
00000290: 663a d53d ccd8 f6bd 9e55 7cbe 006d 9bbd
000002a0: a867 5f3d 3673 cc3d 1b1c e83c 02ab 57bd
000002b0: c169 76bd 70c6 b7bd 085e a2be 2e13 203d
000002c0: 9064 3a3e 4762 19be 8f29 593d 602c 263d
000002d0: 500e 0f3d c600 34be 4c37 5b3d d603 993d
000002e0: b063 683d 344d 3abe a207 16be 5d2c c83c
000002f0: fa87 bcbd 8437 0fbd ef5a afbe ccd9 22bc
00000300: 0ec5 eabc 2886 0bbe 5511 22be 27a3 143d
00000310: 1b72 97bd f6c6 b5bd 7b4e c7bd e7cd 143d
00000320: c1aa 28bd c6b4 653e 7249 163d fe4d d3bb
00000330: 0c3e c93e 16ca 2e3d 00be 723d 2a00 dbbe
00000340: 419f 613e 4025 c4bb f30f 77bd 713b 313e
00000350: 6210 3d3e 7e4e 07be 7519 9bbe a02b 5e3b
00000360: ea04 9d3c 68a4 acbd 6ff2 473d 0efe 06be
00000370: b949 c4bd 2d83 eebd de57 1ebe 3689 b93c
00000380: 1c6d abbe 877c 88be b9aa 57be 5c2d b23c
00000390: 1569 c6bd a5f3 813d 0652 ab3d 53ef 0b3d
000003a0: 08b1 f1bd 6f8d 813d 8be2 4b3d 0efb 22be
000003b0: 690e 153e 68bb 05be f311 763e 9abf 33be
000003c0: 44ac fabd d9f0 d8bd d0c5 8fbd 0137 52bd
000003d0: e607 92bd dbd6 d5bd 5783 48bd ae49 613e
000003e0: 97ab bfbd 2d96 f1be 14a2 65be cd26 2fbe
000003f0: ef4b 93be 1f52 c63d bc6b 4f3d 0046 6aba

fc3.bias f4 [32]
-0.06749418 0.10230414 0.11897643 0.016701644 -0.026063072 -0.08529627 -0.032112576 -0.03969204
0.010329848 -0.016601823 0.05501933 -0.019918773 0.023062466 0.07093289 0.03794284 0.04898959
-0.1318599 0.059963886 0.08401575 -0.012928523 0.13892116 0.0035449134 0.012985469 0.015834998
0.023243023 0.08569168 -0.039626803 0.025787922 0.061615795 -0.15637845 -0.1481688 -0.14854464
00000000: 633a 8abd d584 d13d eaa9 f33d e3d1 883c
00000010: 3982 d5bc d0af aebd 7a88 03bd 1f94 22bd
00000020: 863e 293c 8c00 88bc f35b 613d b22c a3bc
00000030: 7fed bc3c 4345 913d f469 1b3d 4fa9 483d
00000040: 4806 07be b19c 753d 7310 ac3d 28d2 53bc
00000050: 5941 0e3e c751 683b 01c1 543c 66b8 813c
00000060: 2768 be3c 1f7f af3d b74f 22bd 3141 d33c
00000070: d860 7c3d ac21 20be 90b9 17be 161c 18be

fc1_adv.weight_mu f4 [32, 32]
0.1304123 -0.21294011 -0.31209636 0.063130885 -0.053506143 0.025007328 -0.07860812 0.086841024
-0.15526134 -0.2258067 0.066908225 -0.22849685 0.09822233 -0.052559406 -0.10030196 -0.13014348
0.024937801 -0.10604357 0.036677174 -0.011848747 0.1901113 0.06597978 0.080653906 0.07992384
0.029227046 -0.10790713 0.0886128 -0.083859846 0.11510679 -0.014586208 0.04011819 0.103781946
0.056183774 -0.08097183 -0.003236047 -0.23554063 -0.022135084 -0.07490935 -0.119916305 -0.04675138
-0.021412611 -0.22955783 0.069728866 0.009221184 0.074644424 -0.11891422 -0.19835861 0.09155238
0.166162 -0.15487424 -0.19374211 0.010828553 0.096924886 -0.095576696 -0.19244996 -0.12966964
-0.1848189 0.13217305 -0.13473952 0.0814445 -0.0014425238 -0.010614594 -0.06757518 0.112860225
-0.07734344 -0.16220564 -0.023606518 0.17033522 -0.1536714 0.08975822 0.18317759 0.024864929
0.10080936 -0.17919993 0.04046682 0.19670476 -0.15242676 0.09437783 0.06945102 0.08950439
0.09457458 0.15640157 -0.25700182 0.19552429 0.20233987 -0.27432075 0.01893439 0.019663109
-0.07322143 0.37467033 0.07843591 -0.2118995 -0.09037329 0.13743462 -0.1629866 0.110727265
0.063654445 0.04839064 0.30140185 -0.34467748 -0.27575347 -0.6094834 0.44553488 -0.42354977
-0.042391326 -0.37216458 0.08565131 0.12946008 0.40196827 0.02447257 -0.020546244 -0.39433298
-0.14526924 -0.06608233 0.13855547 -0.05834006 -0.11008561 -0.23889253 0.14117727 -0.013864226
0.17128259 0.08199231 -0.043618727 0.13558176 -0.4046943 -0.18635754 -0.13640387 0.067617126
0.12673761 -0.19412233 -0.13167077 0.019610647 0.1269171 -0.077682264 0.086951435 0.029593246
-0.010905682 -0.056271337 -0.05760542 0.028896913 -0.039957073 0.1559956 -0.2817295 -0.1390567
-0.1638472 0.008178702 -0.21690904 -0.17492959 -0.17950234 -0.108645685 0.12125323 0.13640599
-0.057486657 -0.23926805 0.11461382 -0.04465271 0.020073907 -0.18710926 -0.16823305 -0.15385205
0.031151783 0.06101206 0.017389057 -0.109894775 -0.12489172 -0.031215826 -0.121722005 -0.05644194
0.021897389 -0.15608433 -0.042853992 -0.14525919 0.0930576 -0.22949952 0.03817278 0.080534294
-0.16448751 0.022772877 -0.091975644 0.058112904 0.07488377 -0.16288128 -0.10871277 -0.15052032
0.04317758 -0.15357526 -0.118724585 0.06418043 0.06632012 0.11912332 0.1282676 -0.14770609
-0.04313676 0.064749025 0.21563451 -0.37558895 -0.51143074 -0.072323255 0.15998837 -0.20485188
-0.7105554 -0.17376104 0.10362287 0.3927657 -0.1501679 0.22448242 0.154838 -0.3574808
-0.038220525 -0.10923419 0.10322429 -0.30382508 -0.18188709 0.13184805 0.054886445 0.13218498
-0.11889327 0.009268835 -0.18217286 0.405348 -0.25733978 -0.11606331 0.21153271 -0.036191292
-0.0153564215 -0.10719363 -0.38917038 0.021638624 0.08071256 0.24001743 -0.05723491 -0.05802239
0.09331064 -0.08159278 -0.034550883 -0.0024446463 -0.6184288 -0.387187 -0.27766573 0.32046798
0.08501157 0.22259934 -0.060481973 -0.16941245 0.35751814 -0.065297864 0.18007986 0.3169703
-0.11842782 0.1918208 -0.06311898 0.11254769 -0.0733112 -0.16950154 0.007728535 0.102429554
00000000: cd8a 053e f90c 5abe 18cb 9fbe c44a 813d
00000010: 4229 5bbd 2bdc cc3c 4bfd a0bd b5d9 b13d
00000020: d4fc 1ebe df39 67be 2e07 893d 14fb 69be
00000030: ca28 c93d 8848 57bd 1d6b cdbd 5544 05be
00000040: 5c4a cc3c 5f2d d9bd ce3a 163d 3f21 42bc
00000050: 89ac 423e 6820 873d e02d a53d 1caf a33d
00000060: 8f6d ef3c 6afe dcbd a17a b53d b6be abbd
00000070: 1cbd eb3d fefa 6ebc f952 243d a18b d43d
00000080: f520 663d 8fd4 a5bd dc13 54bb 9031 71be
00000090: a354 b5bc 136a 99bd ae96 f5bd 607e 3fbd
000000a0: 8069 afbc 3511 6bbe 02ce 8e3d 7314 173c
000000b0: 2ddf 983d 4c89 f3bd 851e 4bbe d07f bb3d
000000c0: 5f26 2a3e 5a97 1ebe 5564 46be 3e6a 313c
000000d0: 8e80 c63d b7bd c3bd 9a11 45be 1ec8 04be
000000e0: 2a41 3dbe 5f58 073e 28f9 09be 60cc a63d
000000f0: 1113 bdba d6e8 2dbc db64 8abd 4323 e73d
00000100: 3d66 9ebd 3c19 26be 7562 c1bc 5b6c 2e3e
00000110: 095c 1dbe 28d3 b73d e892 3b3e 89b1 cb3c
00000120: 2375 ce3d 3080 37be 89c0 253d f96c 493e
00000130: c315 1cbe 2a49 c13d 563c 8e3d 144e b73d
00000140: 51b0 c13d bc27 203e be95 83be 8537 483e
00000150: 2f32 4f3e c573 8cbe 4b1c 9b3c 8714 a13c
00000160: 1ef5 95bd cad4 bf3e 02a3 a03d 2ffc 58be
00000170: a215 b9bd a9bb 0c3e f6e5 26be fac4 e23d
00000180: 435d 823d 4435 463d 5851 9a3e 9179 b0be
00000190: 8f2f 8dbe 1b07 1cbf 261d e43e 84db d8be
000001a0: 87a2 2dbd 5b8c bebe f469 af3d 2f91 043e
000001b0: c9ce cd3e b37a c83c 9950 a8bc 03e6 c9be
000001c0: 76c1 14be 2c56 87bd 7ce1 0d3e fdf5 6ebd
000001d0: 9074 e1bd 3ea0 74be c690 103e c726 63bc
000001e0: b464 2f3e 96eb a73d 8da9 32bd f2d5 0a3e
000001f0: 1734 cfbe 83d4 3ebe 75ad 0bbe d97a 8a3d
00000200: 81c7 013e 01c8 46be b4d4 06be 82a6 a03c
00000210: 8ef6 013e e117 9fbd 9813 b23d 896d f23c
00000220: bfad 32bc c67c 66bd a9f3 6bbd 38b9 ec3c
00000230: 07aa 23bd 50bd 1f3e d93e 90be e164 0ebe
00000240: 8fc7 27be f6ff 053c 671d 5ebe be20 33be
00000250: 76cf 37be a181 debd 9d53 f83d 03ae 0b3e
00000260: 2177 6bbd af02 75be a7ba ea3d c3e5 36bd
00000270: 0972 a43c 9299 3fbe 4945 2cbe 648b 1dbe
00000280: 0632 ff3c c8e7 793d 7f73 8e3c 8310 e1bd
00000290: 3bc7 ffbd 55b8 ffbc 6349 f9bd aa2f 67bd
000002a0: 2762 b33c 92d4 1fbe ab87 2fbd d3be 14be
000002b0: fc94 be3d ec01 6bbe 105b 1c3d 2aef a43d
000002c0: 6a6f 28be 2f8e ba3c ba5d bcbd cc07 6e3d
000002d0: a95c 993d 5aca 26be cda4 debd 0022 1abe
000002e0: f9da 303d d542 1dbe e025 f3bd 0771 833d
000002f0: d8d2 873d edf6 f33d 9558 033e 4440 17be
00000300: 2cb0 30bd 239b 843d 4bcf 5c3e 324d c0be
00000310: 20ed 02bf 371e 94bd fed3 233e b1c4 51be
00000320: f5e6 35bf 6aee 31be 3a38 d43d 9618 c93e
00000330: 9dc5 19be b8de 653e da8d 1e3e b907 b7be
00000340: 208d 1cbd 2db6 dfbd 4267 d33d f68e 9bbe
00000350: 9c40 3abe 2d03 073e 9cd0 603d 805b 073e
00000360: 517e f3bd 50dc 173c 868b 3abe c689 cf3e
00000370: 0ac2 83be 9ab2 edbd 089c 583e 523d 14bd
00000380: 8099 7bbc 5588 dbbd 5741 c7be 7c43 b13c
00000390: a04c a53d 21c7 753e 276f 6abd e3a8 6dbd
000003a0: a619 bf3d 1e1a a7bd 3a85 0dbd 5c36 20bb
000003b0: 5a51 1ebf 603d c6be 342a 8ebe 6114 a43e
000003c0: 8c1a ae3d 15f1 633e f2bb 77bd 757a 2dbe
000003d0: 9e0c b73e e3ba 85bd db66 383e ee49 a23e
000003e0: 498a f2bd ac6c 443e 8644 81bd 677f e63d
000003f0: 2f24 96bd d091 2dbe a73f fd3b 96c6 d13d

fc1_adv.weight_sigma f4 [32, 32]
0.09037025 0.06737555 0.113929346 0.12713417 0.114284955 0.129486 0.114006415 0.1106616
0.0814091 0.16423887 0.10381719 0.02290071 0.1241655 0.055686712 0.11446201 0.12574819
0.08255543 0.10422303 0.037332233 0.09250203 0.1980859 0.0774391 0.072157145 0.08894346
0.09866356 0.06479898 0.059384003 0.09989974 0.06409643 0.082288116 0.089083456 0.09688311
0.075277 0.052654255 0.05116919 0.14016294 0.0767682 0.115569346 0.12299269 0.124238394
0.017777763 0.05450334 0.07646625 0.09830636 0.06297444 0.10127991 0.061411683 0.07336976
0.088388346 0.06005403 0.062368974 0.122484595 0.07931047 0.008421533 0.06788874 0.11352782
0.013521789 0.06996322 0.08621634 0.119244605 0.09143798 0.08831203 0.09879051 0.08251148
0.06680247 0.19456656 0.072793625 -0.020557648 0.056761466 0.06647132 0.11442045 0.06323814
0.13935263 -0.029561138 0.12923346 0.030173926 0.028151682 0.110619605 0.056934766 0.1048332
0.08328565 0.029258637 0.10393168 0.023955803 0.09179968 0.011120716 0.12833405 -0.039812002
0.107500605 0.1593642 0.12650323 0.03405543 -0.019513479 0.070858374 0.13907897 0.0917171
0.03927079 0.01852282 -0.008068947 -0.04515023 0.010420439 -0.008653209 0.0208798 -0.0012986545
0.06203164 -0.015103898 0.0052631083 0.034655523 -0.005326836 -0.022889012 -0.0242192 0.006957897
0.063316956 0.019854154 -0.027252909 -0.0048569757 0.010439739 0.01343151 0.08568826 0.017765617
0.016813999 0.12552099 0.044154674 -0.011574267 0.009392216 0.10040153 0.07124112 0.096633464
0.080567874 0.14259076 0.16087796 0.074392095 0.061323844 0.067460656 0.113262296 0.13934304
0.06714658 0.0067961793 0.14080903 0.15522899 0.015642537 0.12186001 0.050859824 0.051104147
0.08586129 0.079850726 0.017615397 0.049081165 0.106758185 0.124111556 0.094039045 0.08681357
0.036587227 -0.0002841266 0.08304899 0.043887075 0.10790882 0.08553721 0.09987893 0.09899182
0.08715362 0.033505592 0.051613092 0.071834214 -0.0029383108 0.1013863 0.12903778 0.11291768
0.057331607 0.09374777 0.08184213 0.10344295 0.07077308 0.051370513 0.009697957 0.03453439
0.08219015 0.066127725 0.06375175 0.057227273 0.1150963 -0.012960883 0.08047003 0.05912564
0.0421452 0.10493706 0.07349424 0.043351777 0.07667725 0.09443815 0.13045317 0.07620776
0.08410949 0.01691334 -0.0071449876 0.10360444 0.11353295 0.02183777 -0.0018858063 0.04882919
0.022375919 -0.017361932 0.01640808 -0.033465613 0.027084274 -0.025329318 -0.018549634 0.076265015
0.08260614 0.080312 -0.0055796625 0.017990207 -0.023571536 0.030217925 -0.0039725844 0.13009822
0.013341852 0.07326751 0.09347152 -0.015415321 -0.043435518 0.07227041 0.15879956 0.09600659
0.094788834 0.12073592 -0.016013455 0.056117825 0.10205895 0.047919396 0.10729102 0.20100181
0.029027896 0.048141923 -0.004245932 0.06560704 0.043089952 0.123600565 0.11320383 0.09407473
0.076920696 0.09865243 0.00865891 0.030202521 -0.013203805 0.12893796 0.045905765 0.081907585
-0.01590677 0.24813755 0.090359375 0.038877893 0.14114936 0.08834966 0.08677025 0.089721315
00000000: 0a14 b93d 31fc 893d ca53 e93d 762f 023e
00000010: 3b0e ea3d fa97 043e 327c e93d 8da2 e23d
00000020: d0b9 a63d 3c2e 283e 1b9e d43d 459a bb3c
00000030: 7b4a fe3d c017 643d 0f6b ea3d 22c4 003e
00000040: d212 a93d e272 d53d afe9 183d b471 bd3d
00000050: 08d7 4a3e 6498 9e3d 20c7 933d fd27 b63d
00000060: 1f10 ca3d 54b5 843d a43c 733d 3c98 cc3d
00000070: fd44 833d ac86 a83d 6371 b63d a76a c63d
00000080: d42a 9a3d fdab 573d c996 513d e086 0f3e
00000090: a538 9d3d 9faf ec3d 97e3 fb3d b370 fe3d
000000a0: aca2 913c e53e 5f3d 569a 9c3d d854 c93d
000000b0: bef8 803d d76b cf3d d18a 7b3d e242 963d
000000c0: f304 b53d 37fb 753d 9c76 7f3d 34d9 fa3d
000000d0: 876d a23d 78fa 093c 4009 8b3d 4681 e83d
000000e0: 7e8a 5d3c e048 8f3d 3192 b03d 8436 f43d
000000f0: d643 bb3d f0dc b43d ae52 ca3d c7fb a83d
00000100: bccf 883d 753c 473e d314 953d 8368 a8bc
00000110: b67e 683d 1e22 883d 4555 ea3d ff82 813d
00000120: 75b2 0e3e 332a f2bc c755 043e 4f2f f73c
00000130: 5b9e e63c 888c e23d 6e34 693d cab2 d63d
00000140: ab91 aa3d cfaf ef3c 22da d43d f63e c43c
00000150: 7801 bc3d aa33 363c 006a 033e e911 23bd
00000160: 4729 dc3d 5e30 233e 108a 013e b57d 0b3d
00000170: bbda 9fbc 321e 913d b86a 0e3e 2dd6 bb3d
00000180: 68da 203d 2bbd 973c 9e33 04bc 73ef 38bd
00000190: 7dba 2a3c 30c6 0dbc 1d0c ab3c 9d37 aaba
000001a0: e414 7e3d 5776 77bc 2776 ac3b f3f2 0d3d
000001b0: bd8c aebb bd81 bbbc 5867 c6bc 12ff e33b
000001c0: 52ac 813d 2ea5 a23c 7e41 dfbc 4427 9fbb
000001d0: 700b 2b3c d60f 5c3c 547d af3d 3389 913c
000001e0: 83bd 893c 9388 003e 88db 343d ffa1 3dbc
000001f0: cfe1 193c 519f cd3d dde6 913d c4e7 c53d
00000200: c500 a53d 5003 123e 31bd 243e e25a 983d
00000210: b62e 7b3d d028 8a3d 10f6 e73d f1af 0e3e
00000220: 2584 893d 7cb2 de3b 3e30 103e 59f4 1e3e
00000230: c724 803c be91 f93d 6452 503d 9552 513d
00000240: 0bd8 af3d c788 a33d 2a4e 903c 5509 493d
00000250: 09a4 da3d 332e fe3d 8b97 c03d 50cb b13d
00000260: 7ddc 153d d4f6 94b9 9715 aa3d efc2 333d
00000270: 4dff dc3d 222e af3d 538d cc3d 39bc ca3d
00000280: 997d b23d 293d 093d 4068 533d d11d 933d
00000290: ad90 40bb 9fa3 cf3d 7b22 043e 6241 e73d
000002a0: 8cd4 6a3d d5fe bf3d d99c a73d e6d9 d33d
000002b0: 7af1 903d e369 523d 2ee4 1e3c ef73 0d3d
000002c0: 4f53 a83d f96d 873d 4790 823d 2567 6a3d
000002d0: 9cb7 eb3d e259 54bc 79cd a43d ba2d 723d
000002e0: 72a0 2c3d 3ee9 d63d 2684 963d a291 313d
000002f0: f608 9d3d ca68 c13d 8495 053e d012 9c3d
00000300: 9941 ac3d d88d 8a3c 8020 eabb 912e d43d
00000310: f783 e83d 1fe5 b23c 292d f7ba 1e01 483d
00000320: b44d b73c 9c3a 8ebc 3d6a 863c 3d13 09bd
00000330: d7df dd3c 6e7f cfbc 67f5 97bc d530 9c3d
00000340: 682d a93d 9e7a a43d 9ad5 b6bb 3360 933c
00000350: 1819 c1bc 958b f73c 742c 82bb 7838 053e
00000360: c997 5a3c 470d 963d ff6d bf3d 8b90 7cbc
00000370: 71e9 31bd 8202 943d 5a9c 223e 1a9f c43d
00000380: a620 c23d 6544 f73d a62e 83bc cedb 653d
00000390: 4804 d13d 2147 443d 65bb db3d 6bd3 4d3e
000003a0: e9cb ed3c 7730 453d 7621 8bbb fc5c 863d
000003b0: 177f 303d 4b22 fd3d 69d7 e73d 41aa c03d
000003c0: 9988 9d3d 490a ca3d 1ade 0d3c 476b f73c
000003d0: c654 58bc 5008 043e af07 3c3d 2abf a73d
000003e0: ea4e 82bc c517 7e3e 560e b93d 6d3e 1f3d
000003f0: 7589 103e abf0 b43d 9ab4 b13d cfbf b73d

fc1_adv.bias_mu f4 [32]
-0.26200515 -0.1415139 -0.059156265 0.086096056 -0.09291955 -0.2645349 0.112429574 -0.0031630585
-0.09543731 -0.08341762 0.13908444 -0.26718944 -0.17030656 0.057323195 -0.1938032 -0.18814574
-0.02372758 -0.05703639 -0.24029951 -0.09722817 -0.21451418 -0.13100834 0.07325087 -0.04865457
0.15665735 0.16789329 -0.006541235 -0.22074398 -0.15627056 -0.028682144 0.09323323 -0.12337453
00000000: 8a25 86be 05e9 10be d74d 72bd 2153 b03d
00000010: 9b4c bebd 1e71 87be 7a41 e63d 514b 4fbb
00000020: a374 c3bd dbd6 aabd 276c 0e3e 0ecd 88be
00000030: d864 2ebe bacb 6a3d 5974 46be 47a9 40be
00000040: 5860 c2bc fd9e 69bd 1311 76be 901f c7bd
00000050: 9ba9 5bbe 0d27 06be 8d04 963d 044a 47bd
00000060: c96a 203e 38ec 2b3e db57 d6bb b60a 62be
00000070: 6405 20be d1f6 eabc 10f1 be3d c9ab fcbd

fc1_adv.bias_sigma f4 [32]
0.032853395 -0.0065663545 0.02972637 -0.007907282 0.0017673381 0.036467254 -0.008286497 -0.018302161
0.0059135905 0.013232903 -0.004623997 0.0014905616 -0.0006330293 0.00081403524 0.005531477 -0.024375271
0.018799674 -0.0017271576 0.0057370667 -0.06819367 0.008795522 0.019316856 0.00048448014 0.0015823537
-0.009261891 0.00086816755 0.012584479 0.042720184 -0.002248348 0.011016648 -0.0015236137 0.0020509562
00000000: 4891 063d 932a d7bb b784 f33c 8b8d 01bc
00000010: 07a6 e73a b05e 153d 16c4 07bc 6aee 95bc
00000020: cbc6 c13b d1ce 583c e684 97bb f35e c33a
00000030: e1f1 25ba fb64 553a 6441 b53b a6ae c7bc
00000040: c601 9a3c cb61 e2ba 01fe bb3b 1fa9 8bbd
00000050: 181b 103c 623e 9e3c d301 fe39 fb66 cf3a
00000060: 30bf 17bc bd95 633a 212f 4e3c 5cfb 2e3d
00000070: 0559 13bb 2c7f 343c feb3 c7ba 5669 063b

fc2_adv.weight_mu f4 [4, 32]
0.0955033 0.11456025 0.09317141 0.10855448 0.0074432613 -0.1488125 0.28378624 -0.27546805
-0.012251536 0.040276706 -0.13514507 -0.006037549 -0.042587325 0.039249048 -0.016636174 0.07941783
0.11538731 0.023017157 0.1266982 0.022424826 -0.17180924 0.08354866 -0.33565307 0.02051324
-0.05132498 -0.15393515 -0.33861127 0.010547302 -0.10590901 0.08361703 0.19762923 -0.09569672
0.12809575 0.07405159 0.30196953 -0.026378142 0.037665434 -0.14211252 -0.07219139 0.051727887
-0.058124986 0.15197113 -0.26326543 0.053533506 -0.0053221947 0.023942666 0.016533481 0.21939975
0.116443 0.17261912 0.023007285 0.08848482 0.15723044 0.03453196 0.2227336 0.06426742
-0.15494323 -0.27276263 0.20390798 -0.09349257 0.040496524 0.13059515 -0.071152 -0.024206858
-0.06353055 -0.054681923 -0.0585158 0.3221548 -0.04369643 -0.12130062 -0.04047987 -0.10121065
0.0120039005 -0.05510274 0.3974902 0.018983949 -0.12412837 -0.071601115 0.11142454 0.020408876
0.015972445 0.15096511 0.2025395 -0.011519686 -0.09951757 0.138908 0.013640181 -0.019649342
0.0039178175 -0.2227332 -0.2488432 0.18292467 -0.02418802 -0.089909546 0.0005659224 0.050708722
-0.034449674 0.07558778 -0.096873105 -0.24545044 -0.07645179 -0.17540787 -0.08206485 0.10317735
-0.090719216 -0.06252118 -0.20027208 -0.012527164 -0.08479994 -0.25485146 -0.037525453 -0.16202232
0.089280866 0.06811579 0.035223555 0.03391855 0.1503078 0.057753976 -0.09929658 0.04915429
0.15664884 0.17048626 0.16449395 0.10079545 -0.1736456 0.016244538 -0.14884268 0.05668286
00000000: 3c97 c33d 909e ea3d a7d0 be3d d051 de3d
00000010: 9ae6 f33b 4e62 18be 6e4c 913e 260a 8dbe
00000020: abba 48bc 30f9 243d 7863 0abe a2d6 c5bb
00000030: 0c70 2ebd 9cc3 203d 9648 88bc d1a5 a23d
00000040: 2f50 ec3d 7a8e bc3c 2cbd 013e 45b4 b73c
00000050: c3ee 2fbe 8f1b ab3d b8da abbe 620b a83c
00000060: 243a 52bd 2da1 1dbe 755e adbe 97ce 2c3c
00000070: d3e6 d8bd 683f ab3d 515f 4a3e a4fc c3bd
00000080: 882b 033e 5ca8 973d c09b 9a3e f916 d8bc
00000090: 1247 1a3d f285 11be 14d9 93bd 9fe0 533d
000000a0: 7714 6ebd 529e 1b3e baca 86be f345 5b3d
000000b0: ce65 aebb 6923 c43c 3971 873c 54aa 603e
000000c0: ab79 ee3d 11c3 303e c679 bc3c 8837 b53d
000000d0: 0401 213e 6271 0d3d 4714 643e a39e 833d
000000e0: 70a9 1ebe 8ba7 8bbe 41cd 503e 0879 bfbd
000000f0: afdf 253d bcba 053e 24b8 91bd 764d c6bc
00000100: 4e1c 82bd 27fa 5fbd 43ae 6fbd 79f1 a43e
00000110: 07fb 32bd 766c f8bd 38ce 25bd 8747 cfbd
00000120: 02ac 443c 69b3 61bd d683 cb3e 3a84 9b3c
00000130: 0437 febd 9ba3 92bd 8d32 e43d 8430 a73c
00000140: a5d8 823c 9996 1a3e 8466 4f3e 11bd 3cbc
00000150: decf cbbd e63d 0e3e 117b 5f3c a8f7 a0bc
00000160: 0961 803b 2c14 64be c0d0 7ebe 9b50 3b3e
00000170: f425 c6bc 7f22 b8bd 695a 143a f3b3 4f3d
00000180: 1a1b 0dbd c4cd 9a3d 6865 c6bd 5c57 7bbe
00000190: c292 9cbd 1f9e 33be 9e11 a8bd a54e d33d
000001a0: ffca b9bd 1b0b 80bd 2014 4dbe bc3e 4dbc
000001b0: 97ab adbd e47b 82be 4ab4 19bd 2ee9 25be
000001c0: e3d8 b63d 4b80 8b3d 9346 103d 2dee 0a3d
000001d0: 4aea 193e 6f8f 6c3d 015c cbbd 0256 493d
000001e0: 8e68 203e f393 2e3e 1a71 283e d86d ce3d
000001f0: 27d0 31be 4413 853c 376a 18be 492c 683d

fc2_adv.weight_sigma f4 [4, 32]
0.026858319 0.0707882 0.018955082 0.008029907 0.013274692 0.14175051 0.0063610733 0.041882895
0.005309994 0.055159405 -0.0029330547 -0.0005400114 0.031718936 0.0041903337 -0.028369412 0.015581064
0.06670401 0.121629536 0.055106536 0.056345288 -0.0067376406 0.06250299 -0.0032708324 0.028540934
0.0053033773 -0.007868105 0.012465695 0.055804726 0.09682313 0.023589453 -0.0056344443 0.106817015
0.11217119 0.050901894 0.055158306 0.0013760275 -0.031838395 -0.0084662195 -0.008640459 0.0042599784
0.059592564 -0.015018189 -0.0064510196 0.16462968 0.059428077 0.011663997 0.057324734 0.040485084
0.025944661 0.122500874 0.045944378 0.06593057 0.00058392016 0.072183475 0.13673332 -0.05474545
0.005785634 -0.00592842 0.075186 0.064850196 0.054057233 0.039457444 -0.0036625206 0.051428437
0.05498482 0.03768737 -0.036246903 -0.016076718 0.01653065 0.009169592 0.008617175 0.028357182
0.02986065 0.091331646 -0.001719389 0.082619146 -0.008479033 0.011876126 -0.012216716 -0.0119676
-0.008767438 0.13328734 0.071349315 0.0994021 0.030184934 0.07441865 0.005508226 0.0826884
0.009701304 0.0059347725 -0.05286703 0.04727019 0.048750937 0.031292394 0.01866648 0.05288694
0.079896785 0.13739446 -0.035347372 0.0038139871 0.06583398 0.0882005 0.006065618 -0.019799612
0.054093577 0.14665098 -0.007020076 0.034477726 0.05641538 -0.0007057197 0.064427815 0.045045827
0.013711579 -0.015023332 0.12249717 0.08596597 -0.010740366 -0.011593819 -0.014282299 0.02862752
0.0068848706 0.016711155 0.015374952 0.112189375 0.03819514 -0.026290417 -0.016012302 0.095677435
00000000: fa05 dc3c 67f9 903d b047 9b3c df8f 033c
00000010: 187e 593c 0c27 113e 8d70 d03b 668d 2b3d
00000020: 75ff ad3b d4ee 613d 7e38 40bb 8d8f 0dba
00000030: b7eb 013d 114f 893b f866 e8bc b847 7f3c
00000040: 1d9c 883d e818 f93d 64b7 613d 51ca 663d
00000050: 6dc7 dcbb 9101 803d 765b 56bb adce e93c
00000060: f4c7 ad3b 39e9 00bc ea3c 4c3c 7f93 643d
00000070: 354b c63d ab3e c13c 25a1 b8bb e1c2 da3d
00000080: 02ba e53d 817e 503d aded 613d d25b b43a
00000090: fa68 02bd e6b5 0abc b690 0dbc 4a97 8b3b
000000a0: 5517 743d da0e 76bc 1363 d3bb af94 283e
000000b0: db6a 733d 591a 3f3c 57cd 6a3d b0d3 253d
000000c0: e689 d43c bde1 fa3d 2c30 3c3d 9b06 873d
000000d0: 3812 193a eed4 933d d203 0c3e c43c 60bd
000000e0: 6a95 bd3b 3143 c2bb 1efb 993d 2ed0 843d
000000f0: 1e6b 5d3d 219e 213d e606 70bb a0a6 523d
00000100: c337 613d 125e 1a3d a277 14bd 52b3 83bc
00000110: 496b 873c 0e3c 163c 0d2f 0d3c 524d e83c
00000120: 529e f43c 160c bb3d 1f5d e1ba 3a34 a93d
00000130: a4eb 0abc 1594 423c 9f28 48bc c113 44bc
00000140: 4da5 0fbc 7a7c 083e 971f 923d 5493 cb3d
00000150: 6546 f73c ce68 983d 597e b43b 8958 a93d
00000160: 38f2 1e3c 7b78 c23b 198b 58bd 639e 413d
00000170: 10af 473d 742c 003d 72ea 983c fa9f 583d
00000180: eda0 a33d 22b1 0c3e 68c8 10bd 16f4 793b
00000190: f7d3 863d 77a2 b43d 17c2 c63b cc32 a2bc
000001a0: 3a91 5d3d ad2b 163e aa08 e6bb 8438 0d3d
000001b0: d013 673d 0c00 39ba bbf2 833d f981 383d
000001c0: 88a6 603c 6c24 76bc ccdf fa3d ed0e b03d
000001d0: 5cf8 2fbc 00f4 3dbc 4e00 6abc 4384 ea3c
000001e0: 7b9a e13b d5e5 883c 39e7 7b3c 8bc3 e53d
000001f0: 8272 1c3d 005f d7bc 3b2c 83bc 88f2 c33d

fc2_adv.bias_mu f4 [4]
0.007585501 0.098552115 -0.07121943 0.054804657
00000000: cb8f f83b b1d5 c93d 7edb 91bd d97a 603d

fc2_adv.bias_sigma f4 [4]
-0.0035807048 0.0068187728 0.00260178 -0.0025880067
00000000: 42aa 6abb 0370 df3b a082 2a3b 8c9b 29bb

fc1_val.weight_mu f4 [32, 32]
-0.14028728 -0.06252961 0.005060721 0.08710427 0.037492152 -0.110516414 0.09725356 -0.08896271
-0.014246761 -0.10725671 -0.0018355589 -0.14677899 0.05153941 -0.31062672 -0.06450212 -0.13102415
0.11172594 0.1636485 -0.011110555 -0.1881878 -0.20185593 0.035199508 -0.14280355 -0.07311055
-0.059431076 -0.099835776 0.1397753 0.33042765 -0.088410996 0.06065895 0.01075208 0.14131886
-0.14816292 -0.14667952 -0.09477865 0.121496916 0.070600025 -0.11417612 -0.11985772 -0.10895336
0.012903015 -0.056465637 -0.14424151 -0.007498956 -0.052252665 0.0860489 -0.18593942 -0.104083106
0.020570388 0.014997774 -0.011575892 0.13421819 -0.14143845 0.073466964 0.061221838 0.10251236
-0.05787309 -0.029196732 0.025203118 -0.09214681 -0.13410103 -0.050366547 0.12019846 0.035630293
0.03701391 -0.05782836 -0.13019328 0.14963365 -0.10037225 -0.0453775 0.053140827 -0.15128982
0.18111372 -0.009973514 -0.12723087 0.20495102 -0.25449163 0.05460546 -0.33219716 0.3249546
-0.10477725 0.32477054 -0.4224321 0.023339583 0.14736187 -0.24183673 -0.047798812 0.033182643
-0.08388458 0.44642463 -0.06774598 0.03669746 -0.24530067 0.0007320034 -0.20565826 0.17089061
0.032503817 0.068269975 0.15151954 -0.112797275 0.36416554 0.15254821 -0.1915567 0.070817456
0.036984514 -0.03818923 -0.002172327 -0.17523949 0.020759774 0.20844798 0.23395534 -0.0125112515
0.06084419 0.018803045 0.13888912 0.11700082 -0.3981508 -0.079482645 -0.18438491 -0.06034408
0.15421467 -0.3493132 0.098690756 0.20149128 0.3761845 -0.18987352 -0.10235065 0.002612023
-0.09266128 0.19803765 -0.124240346 -0.092450365 0.38728076 0.14204787 -0.11104364 0.17313313
-0.1266751 0.057660393 -0.016009977 -0.19806263 -0.15078935 0.17865382 0.2723386 0.052130636
-0.06977591 0.09944093 0.21273392 -0.115164965 -0.34390062 0.22059326 0.023417715 -0.14591365
0.12293364 -0.38262486 -0.022425732 0.17875144 0.3985767 -0.12805374 0.123109095 -0.16198269
-0.01487687 0.07755298 -0.15540466 -0.090903096 0.022394788 -0.13651262 0.0704126 -0.17069577
-0.11497665 0.120588884 0.03851489 -0.21862888 -0.11318489 -0.12120726 0.004352445 -0.21219102
-0.15609647 0.052601352 -0.07527982 -0.064815715 0.07275181 0.012085905 -0.14144331 0.06582613
0.02567477 -0.079893574 -0.18592016 0.031119527 0.12405142 -0.19015802 -0.18179692 -0.0028395462
-0.1469904 -0.12454004 0.05214541 0.05377938 0.16328472 0.03463702 0.16680905 0.052584358
0.14387773 0.10613475 -0.11244969 0.053553134 -0.05149459 0.09191999 -0.19904469 -0.088783704
0.12560256 -0.13054703 -0.021638589 0.16949019 0.011387161 -0.13620877 -0.10834087 -0.05623951
-0.191399 0.031152707 0.049424846 0.016083663 0.009164447 0.12014674 0.024119996 0.12555099
0.012350206 0.12625387 0.065827645 -0.15758483 0.5784704 0.31058317 0.09303483 0.0018105314
-0.097707026 0.2920049 -0.020292766 -0.021735368 -0.08311618 0.06716732 0.043325827 0.09550404
-0.08000613 -0.16633932 0.17736691 0.0034747308 -0.3048615 -0.06524457 -0.13236967 -0.0407144
0.19411074 -0.51920915 -0.01597095 0.30159095 0.08203354 -0.1242174 -0.09965632 -0.13568667
00000000: 78a7 0fbe 860f 80bd 68d4 a53b b963 b23d
00000010: 5f91 193d 6e56 e2bd e02c c73d 1532 b6bd
00000020: 3f6b 69bc 68a9 dbbd 2397 f0ba 3b4d 16be
00000030: fd1a 533d 770a 9fbe b019 84bd 322b 06be
00000040: 92d0 e43d 7993 273e 0c09 36bc 4db4 40be
00000050: 52b3 4ebe 5c2d 103d 183b 12be fcba 95bd
00000060: 006e 73bd b376 ccbd 4221 0f3e d02d a93e
00000070: d310 b5bd 8575 783d 7e29 303c e4b5 103e
00000080: 05b8 17be 2833 16be 4f1b c2bd 60d3 f83d
00000090: bf96 903d 2bd5 e9bd f777 f5bd f022 dfbd
000000a0: 2b67 533c 8348 67bd 0cb4 13be cdb9 f5bb
000000b0: e406 56bd 683a b03d e766 3ebe 8629 d5bd
000000c0: 3b83 a83c 39b9 753c cfa8 3dbc 7e70 093e
000000d0: 3ed5 10be d975 963d c0c3 7a3d 00f2 d13d
000000e0: 550c 6dbd fc2d efbc c576 ce3c 77b7 bcbd
000000f0: c851 09be 274d 4ebd 9c2a f63d 12f1 113d
00000100: e69b 173d 6edd 6cbd 6351 05be 9039 193e
00000110: f78f cdbd c2dd 39bd 32aa 593d b8eb 1abe
00000120: e075 393e f367 23bc cf48 02be aede 513e
00000130: ba4c 82be faa9 5f3d bf15 aabe 7360 a63e
00000140: 7495 d6bd 5348 a63e 0549 d8be a732 bf3c
00000150: 08e6 163e 0ca4 77be b0c8 43bd 86ea 073d
00000160: aecb abbd c591 e43e 68be 8abd 1350 163d
00000170: 1930 7bbe ebe3 3f3a 1498 52be f3fd 2e3e
00000180: b922 053d 21d1 8b3d f027 1b3e 4202 e7bd
00000190: e873 ba3e 9935 1c3e 7127 44be be08 913d
000001a0: 137d 173d 4f6c 1cbd 995d 0ebb fb71 33be
000001b0: 6710 aa3c 6373 553e fd91 6f3e fefb 4cbc
000001c0: c237 793d d808 9a3c f338 0e3e 209e ef3d
000001d0: 6cda cbbe ccc7 a2bd 66cf 3cbe 5b2b 77bd
000001e0: 73ea 1d3e 2ed9 b2be 611e ca3d bb53 4e3e
000001f0: 419b c03e 346e 42be 389d d1bd 792e 2b3b
00000200: 32c5 bdbd 62ca 4a3e b971 febd 9e56 bdbd
00000210: aa49 c63e ff74 113e d96a e3bd d049 313e
00000220: 1eb7 01be 4e2d 6c3d 5b27 83bc eed0 4abe
00000230: 8668 1abe 07f1 363e f76f 8b3e ef86 553d
00000240: ace6 8ebd b0a7 cb3d ecd6 593e 9cdb ebbd
00000250: be13 b0be 33e3 613e 82d6 bf3c 636a 15be
00000260: a2c4 fb3d 68e7 c3be 2bb6 b7bc 9e0a 373e
00000270: 3f12 cc3e 8520 03be 9f20 fc3d cade 25be
00000280: 1ebe 73bc 19d4 9e3d 6622 1fbe 672b babd
00000290: 4675 b73c f7c9 0bbe 7b34 903d dfca 2ebe
000002a0: e178 ebbd 4ef7 f63d cac1 1d3d 40e0 5fbe
000002b0: 7bcd e7bd 833b f8bd f49e 8e3b 9a48 59be
000002c0: c1d7 1fbe 8474 573d 4e2c 9abd 1abe 84bd
000002d0: e7fe 943d f603 463c 84d6 10be dacf 863d
000002e0: e553 d23c 3e9f a3bd db61 3ebe 61ee fe3c
000002f0: ac0e fe3d c9b8 42be f928 3abe ae17 3abb
00000300: a784 16be d90e ffbd 6d96 553d c447 5c3d
00000310: 1c34 273e 8cdf 0d3d fecf 2a3e b262 573d
00000320: af54 133e 2d5d d93d 064c e6bd 885a 5b3d
00000330: feeb 52bd 8c40 bc3d 5fd2 4bbe 3bd4 b5bd
00000340: f59d 003e 1fae 05be 6943 b1bc d68e 2d3e
00000350: 3791 3a3c 507a 0bbe d1e1 ddbd 675b 66bd
00000360: 19fe 43be f633 ff3c b571 4a3d e3c1 833c
00000370: 7a26 163c 7e0f f63d 4c97 c53c 7090 003e
00000380: 8558 4a3c b248 013e a5d0 863d eb5d 21be
00000390: a316 143f c204 9f3e 0c89 be3d 5a4f ed3a
000003a0: 9f1a c8bd ab81 953e 043d a6bc 5f0e b2bc
000003b0: d138 aabd 058f 893d 6c76 313d 9f97 c33d
000003c0: 41da a3bd db54 2abe ac9f 353e 4fb8 633b
000003d0: ce16 9cbe f29e 85bd ea8b 07be 25c4 26bd
000003e0: f7c4 463e e4ea 04bf 82d5 82bc 216a 9a3e
000003f0: 3301 a83d b165 febd 9d18 ccbd 72f1 0abe
