models/q.pth (torch_old, 28363 bytes, 6 tensors)

fc1.weight f4 [64, 37]
0.05849081 -0.023278328 -0.16630687 -0.08811206 -0.053056397 0.13405262 -0.16374749 0.10087477
-0.0022668869 -0.45116165 -0.11931199 0.10399459 -0.22503828 -0.040094785 -0.008739643 -0.063482836
0.094072774 0.18931502 -0.13581635 0.07173094 0.108242735 0.0671219 0.012018057 0.11410919
-0.038378082 0.0137091875 0.06733863 0.23228665 -0.35420728 0.14822298 -0.13930282 0.12898636
0.05208584 -0.110871375 -0.12321103 -0.010491308 -0.050977618 0.23169403 -0.054526486 0.14705034
-0.06489497 -0.20797604 0.09685557 -0.36090672 -0.06926528 -0.12621911 -0.5605277 0.11837412
-0.06646268 -0.057486385 0.1222412 0.23757842 0.11482951 -0.027577508 0.09088557 -0.075865895
-0.043835126 -0.12285106 -0.082207076 -0.13151816 0.029057821 0.22486497 -0.032737006 -0.006659506
0.078502506 -0.075389154 -0.013567945 0.008380332 0.12855016 0.13030042 0.066916466 0.021872748
0.038584314 0.04554469 0.04507425 0.09780671 0.011145182 -0.029515022 -0.12086104 -0.3447372
-0.011264596 0.23010102 0.14748035 -0.552225 0.01154564 -0.06931364 0.107773595 -0.02182092
0.14881265 -0.08493195 0.1721042 0.1550163 -0.12051877 0.30496863 -0.094425775 0.028448228
0.079822004 -0.13727869 -0.02600603 0.013260943 0.009272748 0.17328411 -0.11036931 -0.12973219
-0.39423987 0.108428 0.05592107 -0.27980116 0.025679793 0.03381696 -0.03081146 0.16437308
-0.10432574 0.13060875 0.16866016 -0.17438042 -0.016626602 -0.007094272 0.067082986 0.06182077
-0.030039975 -0.01957336 -0.05133526 0.11204571 -0.113684244 -0.0043562353 -0.045585304 -0.22358684
-0.059106812 0.023386126 0.011934115 0.18723616 -0.5239197 0.031088466 -0.18325879 -0.48961973
0.025325174 -0.041028306 -0.04319964 0.2256746 0.26158974 0.15687324 0.19478612 -0.040729098
-0.28031555 -0.45886013 0.07986855 -0.0077425083 -0.03037949 -0.36073586 -0.048040133 -0.18183382
0.030194266 0.048273448 0.20610426 -0.19195253 -0.1784024 -0.017070541 -0.015537762 -0.09916527
-0.0831398 -0.17814554 -0.17657474 -0.17392646 0.04383991 -0.14229263 -0.11397071 0.227691
-0.05231816 -0.064591646 -0.06459934 -0.03134421 -0.015299362 0.052206025 -0.086566046 -0.004637729
-0.07749378 -0.053300116 0.13369976 -0.36235344 0.006912286 0.14977466 0.518892 -0.015968608
0.045842092 0.022649145 -0.010511864 -0.11975276 -0.13058928 -0.077760115 0.17545992 0.12703823
-0.1658009 -0.32228324 -1.3519026 -0.0759265 -0.09346724 -0.03622746 -0.14716636 -0.022070881
0.026622823 0.02585233 -0.18523405 -0.12060305 -0.2117938 0.096347146 -0.019162128 0.09179745
-0.027174253 0.033554558 0.012853747 -0.16243756 -0.029972931 0.091591366 -0.027025603 0.015049096
-0.12131891 -0.14158922 0.20660669 -0.006147893 0.11077349 0.06406931 0.17621441 -0.13646472
-0.21819484 0.09123804 -0.25287554 -0.23103699 -0.20005724 0.111764975 -0.04449685 0.20525777
-0.067420214 0.20999013 0.08771951 -0.21389255 0.13164565 -0.17733236 -0.13919222 0.19094244
0.043611903 0.18601114 -0.06319216 0.115751885 -0.039281193 -0.50593597 0.12407485 -0.5805148
-0.045108188 -0.09609329 0.13524543 -0.16479017 0.25595745 0.020321233 -0.46859246 -0.19573669
00000000: 0f94 6f3d 31b2 bebc 594c 2abe 1974 b4bd
00000010: aa51 59bd 1745 093e 6cad 27be 6e97 ce3d
00000020: 0d90 14bb a9fe e6be d859 f4bd 1efb d43d
00000030: 6f70 66be 6e3a 24bd b830 0fbc 4a03 82bd
00000040: 3aa9 c03d ccdb 413e 7113 0bbe ace7 923d
00000050: 5eae dd3d 3577 893d 62e7 443c 14b2 e93d
00000060: 5632 1dbd 809c 603c d6e8 893d 8ddc 6d3e
00000070: a85a b5be c4c7 173e 66a5 0ebe 0015 043e
00000080: f657 553d 8810 e3bd 1156 fcbd bce3 2bbc
00000090: e8cd 50bd 3341 6d3e 2a57 5fbd 5d94 163e
000000a0: a7e7 84bd acf7 54be 375c c63d c4c8 b8be
000000b0: f5da 8dbd 953f 01be be7e 0fbf 216e f23d
000000c0: 961d 88bd d876 6bbd 9859 fa3d c247 733e
000000d0: bc2b eb3d 3aea e1bc 3722 ba3d 945f 9bbd
000000e0: 768c 33bd 5699 fbbd 2f5c a8bd b2ac 06be
000000f0: ab0a ee3c 0143 663e 3d17 06bd fc37 dabb
00000100: ecc5 a03d a165 9abd 164c 5ebc a94d 093c
00000110: a7a2 033e 796d 053e 800b 893d 7a2e b33c
00000120: 960a 1e3d 128d 3a3d c79f 383d e24e c83d
00000130: 489a 363c 7dc9 f1bc fe85 f7bd 6581 b0be
00000140: 248f 38bc 9a9f 6b3e 1705 173e 9e5e 0dbf
00000150: ed29 3d3c 4ff4 8dbd 67b8 dc3d c9c1 b2bc
00000160: 5862 183e cdf0 adbd 153c 303e 98bc 1e3e
00000170: 8bd2 f6bd d924 9c3e 4d62 c1bd 420c e93c
00000180: b879 a33d c992 0cbe 990a d5bc 6d44 593c
00000190: b9ec 173c 6471 313e 4e09 e2bd 84d8 04be
000001a0: cfd9 c9be 800f de3d 7e0d 653d 1942 8fbe
000001b0: 6e5e d23c a783 0a3d 5168 fcbc 6b51 283e
000001c0: bca8 d5bd 4dbe 053e 40b5 2c3e c890 32be
000001d0: 8334 88bc 1177 e8bb ce62 893d c737 7d3d
000001e0: 6516 f6bc 5058 a0bc ec44 52bd 3978 e53d
000001f0: 49d3 e8bd c0be 8ebb a8b7 3abd f3f3 64be
00000200: fc19 72bd 4394 bf3c 4e87 433c d6ba 3f3e
00000210: 9a1f 06bf 3dad fe3c 31a8 3bbe 70af fabe
00000220: bd76 cf3c 4c0d 28bd 1bf2 30bd 3e17 673e
00000230: 17ef 853e 61a3 203e 0376 473e 8ed3 26bd
00000240: 8585 8fbe b7ef eabe 1f92 a33d deb4 fdbb
00000250: 69de f8bc 5fb2 b8be bbc5 44bd a532 3abe
00000260: f759 f73c 61ba 453d ff0c 533e 348f 44be
00000270: 1eaf 36be 85d7 8bbc 1992 7ebc 2917 cbbd
00000280: 3345 aabd c96b 36be 02d0 34be c719 32be
00000290: 7a91 333d 29b5 11be 7a69 e9bd d427 693e
000002a0: 914b 56bd a048 84bd a94c 84bd c962 00bd
000002b0: 2daa 7abc fcd5 553d 8a49 b1bd 17f8 97bb
000002c0: 0fb5 9ebd 3951 5abd 97e8 083e 6486 b9be
000002d0: 7580 e23b 875e 193e 1bd6 043f 99d0 82bc
000002e0: ebc4 3b3d b38a b93c f439 2cbc ef40 f5bd
000002f0: 32b9 05be b240 9fbd c4ab 333e 4f16 023e
00000300: b6c7 29be 4f02 a5be 250b adbf 5a7f 9bbd
00000310: c16b bfbd 3f63 14bd c7b2 16be fecd b4bc
00000320: 1b18 da3c 44c8 d33c ffad 3dbe bbfe f6bd
00000330: 79e0 58be a751 c53d e5f9 9cbc 4d00 bc3d
00000340: 8a9c debc 8170 093d 8698 523c 0856 26be
00000350: cb89 f5bc 4194 bb3d cc64 ddbc 7c90 763c
00000360: 0c76 f8bd c4fc 10be b490 533e 4474 c9bb
00000370: 36dd e23d c536 833d 8d71 343e 68bd 0bbe
00000380: 786e 5fbe 02db ba3d e778 81be f694 6cbe
00000390: cedb 4cbe 09e5 e43d 5442 36bd 182f 523e
000003a0: 9c13 8abd a707 573e 49a6 b33d a606 5bbe
000003b0: 1ece 063e 9d96 35be 6888 0ebe 6a86 433e
000003c0: 65a2 323d b479 3e3e e46a 81bd 530f ed3d
000003d0: 51e5 20bd 0585 01bf f41a fe3d 9e9c 14bf
000003e0: 5dc3 38bd 8fcc c4bd c77d 0a3e c1be 28be
000003f0: db0c 833e b778 a63c 5aeb efbe 336f 48be

fc1.bias f4 [64]
0.10846627 -0.027369095 -0.11311911 -0.016467642 0.101681516 -0.08798997 -0.07133102 -0.018684851
-0.0078673735 -0.1487911 0.10170367 0.13000028 0.20309173 0.07447806 -0.04672298 0.0077976356
0.06425306 0.015376819 0.0035274639 -0.11207514 -0.17947209 0.05021019 0.045184568 -0.10012898
-0.18776871 0.20234187 0.0133218905 -0.19859333 0.15926601 0.16753562 -0.111950584 -0.20914684
0.14032905 -0.009139061 -0.12914856 0.07558112 -0.04862418 0.037722044 0.039577164 -0.10489574
-0.04741393 0.016281867 -0.122421995 0.16531931 0.033926763 -0.055255946 0.024079261 -0.13167785
-0.1690754 0.005832884 -0.15926243 0.05412557 -0.03499177 -0.07021023 -0.21993242 0.023443734
0.116393395 -0.033230454 -0.13195568 -0.10058888 0.000707075 0.029988151 0.06199478 0.024023559
00000000: 9023 de3d 2735 e0bc feaa e7bd 26e7 86bc
00000010: 663e d03d 1634 b4bd ff15 92bd f910 99bc
00000020: 28e6 00bc b25c 18be 044a d03d cb1e 053e
00000030: 47f7 4f3e f487 983d 9860 3fbd 4f83 ff3b
00000040: 1c97 833d 0eef 7b3c 062d 673b a787 e5bd
00000050: 88c7 37be 33a9 4d3d 7413 393d 6c10 cdbd
00000060: 7146 40be b532 4f3e 0f44 5a3c 0d5c 4bbe
00000070: a116 233e 758e 2b3e 5946 e5bd 972a 56be
00000080: 6bb2 0f3e 00bc 15bc 853f 04be 46ca 9a3d
00000090: 262a 47bd 6e82 1a3d aa1b 223d 94d3 d6bd
000000a0: 1c35 42bd 8d61 853c 62b8 fabd 7749 293e
000000b0: caf6 0a3d 0f54 62bd df41 c53c 8fd6 06be
000000c0: 1a22 2dbe c721 bf3b b115 23be c6b2 5d3d
000000d0: 8853 0fbd 62ca 8fbd f735 61be 130d c03c
000000e0: a95f ee3d a81c 08bd 641f 07be 8b01 cebd
000000f0: 005b 393a b6a9 f53c 3dee 7d3d 0ecd c43c

fc2.weight f4 [64, 64]
-0.018815948 0.11809114 0.24736872 0.24506906 0.096650325 -0.07241315 -0.21851978 -0.054810204
0.16936286 0.0560917 0.10101913 -0.24264835 -0.43717828 0.12665008 -0.026983023 0.00723449
-0.22071944 -0.1454799 -0.24990797 -0.2519923 -0.00050132023 -0.015415479 -0.2560816 0.1790098
-0.14455953 -0.28836766 0.22412238 0.0011062204 -0.051046398 -0.24832094 -0.10152661 0.13647489
0.08924415 -0.1432763 -0.17434756 -0.1290923 -0.37526324 0.046967328 0.070371225 -0.28874385
0.14909428 0.11338076 0.22745797 -0.06506089 -0.22871281 -0.18614458 -0.16567925 0.10907876
-0.1042496 -0.005271829 -0.25293237 -0.06961322 -0.1779811 0.33346954 -0.37420923 -0.059592605
-0.07511533 -0.15772463 -0.19308935 0.01982833 0.095352575 0.13425905 -0.09909957 -0.2535488
0.06724521 0.08880084 -0.2632476 0.21342197 0.07049902 0.104709044 -0.018325204 0.06558036
-0.054913357 -0.13576141 -0.03091451 0.24717812 -0.13725619 0.15326001 -0.074779 -0.06376602
0.06361676 0.16165434 -0.0039706994 0.038020562 -0.005604398 -0.21575432 0.05862013 -0.09036339
-0.009012109 0.1409666 -0.15064247 -0.21719538 -0.11514784 0.1496661 -0.034317974 -0.27912837
-0.06746974 0.20998685 -0.1496623 -0.040441938 0.03301662 0.03817083 -0.07944706 -0.1183793
-0.42878717 0.21122642 0.14152032 -0.16988644 -0.10702889 -0.28092316 -0.19179942 -0.12863354
-0.13658741 -0.11420242 -0.046858475 0.10142506 -0.07136289 -0.1458729 0.101163164 0.0024024246
-0.18378712 -0.061542824 0.12823063 0.325324 -0.13448216 -0.004962431 -0.08457064 -0.15063126
-0.037571575 -0.25189874 -0.1567731 0.018307857 0.015530108 -0.038864397 -0.13982765 -0.04643511
0.087200336 -0.025135003 0.15883897 -0.055323098 0.22876844 0.035651177 -0.2815112 0.02186946
-0.08545308 -0.008387849 0.04849525 -0.26894885 -0.12692891 0.04826632 -0.15012798 0.067906946
0.045281697 -0.004488368 0.2055211 0.1182448 -0.15773413 -0.056778807 0.028107515 -0.0141141005
-0.1889469 -0.017450145 -0.088828854 0.0782122 0.13330187 -0.03936404 0.036664594 -0.25295037
0.39598683 -0.2370263 -0.048966613 0.017723976 0.067431316 0.038154475 0.0016821121 -0.2616923
-0.41391313 -0.43251595 0.06660245 0.076955706 -0.6141547 0.06687315 0.009666492 0.040575378
-0.1824513 -0.24362482 0.07224955 0.12390471 0.01328718 0.056832213 -0.2960627 -0.113305055
-0.1458061 -0.28314054 0.042015493 -0.09293127 -0.097204804 -0.060081095 -0.028202487 0.082210965
0.0060733855 0.109206 -0.12860742 0.034393065 0.067307346 -0.40167984 0.109264575 -0.15502894
0.008935211 -0.13424173 -0.060212724 0.012235969 -0.10935159 0.009923344 -0.05332644 -0.08078266
0.13544686 -0.13384442 0.108874746 0.15217534 -0.47217014 -0.45043105 0.2058507 -0.088894516
-0.00027789696 0.0016801849 0.123890825 0.1746705 -0.11576431 -0.1915696 -0.06380346 -0.050739225
-0.069263764 -0.07116164 -0.011480797 0.11799525 -0.1160797 0.04496512 0.098539144 -0.073600225
-0.0027011228 -0.0064756526 -0.09170208 -0.06455955 -0.051336702 0.053573173 -0.050844688 0.06605273
-0.1415887 0.0038605402 -0.23283349 -0.07485406 -0.08461073 -0.16249755 0.05215359 0.10307906
00000000: e723 9abc c5d9 f13d 3a4e 7d3e 62f3 7a3e
00000010: 9bf0 c53d 584d 94bd a6c3 5fbe aa80 60bd
00000020: 756d 2d3e 69c0 653d 1ee3 ce3d cf78 78be
00000030: d5d5 dfbe 8fb0 013e 800b ddbc 4d0f ed3b
00000040: 4704 62be aff8 14be e0e7 7fbe 2205 81be
00000050: 086b 03ba 3591 7cbc 211d 83be 584e 373e
00000060: 6a07 14be eda4 93be 5680 653e 99fe 903a
00000070: 0716 51bd d847 7ebe 2fed cfbd 13c0 0b3e
00000080: a3c5 b63d 06b7 12be 2b88 32be c630 04be
00000090: 8122 c0be d060 403d ca1e 903d 3cd6 93be
000000a0: 2cac 183e 2c34 e83d beea 683e a53e 85bd
000000b0: b133 6abe af9c 3ebe d2a7 29be af64 df3d
000000c0: d080 d5bd 4fbf acbb 5a80 81be 6091 8ebd
000000d0: ad40 36be 85bc aa3e 5a98 bfbe 6017 74bd
000000e0: 11d6 99bd 9182 21be 37b9 45be 066f a23c
000000f0: 3648 c33d 347b 093e b7f4 cabd 26d1 81be
00000100: dbb7 893d 37dd b53d 64c8 86be 4a8b 5a3e
00000110: ca61 903d b271 d63d bd1e 96bc ff4e 863d
00000120: d4ec 60bd 0a05 0bbe 6d40 fdbc 431c 7d3e
00000130: e38c 0cbe 31f0 1c3e bb25 99bd c297 82bd
00000140: 8149 823d b788 253e a41c 82bb 73bb 1b3d
00000150: 19a5 b7bb b3ee 5cbe a91b 703d 7110 b9bd
00000160: 86a7 13bc 8c59 103e 0542 1abe 7768 5ebe
00000170: a1d2 ebbd 1242 193e 0191 0cbd eae9 8ebe
00000180: 932d 8abd cb06 573e 1341 19be 72a6 25bd
00000190: 6f3c 073d 0459 1c3d 24b5 a2bd d970 f2bd
000001a0: fe89 dbbe bd4b 583e b4ea 103e b6f6 2dbe
000001b0: f631 dbbd 29d5 8fbe 1167 44be 83b8 03be
000001c0: 92dd 0bbe f5e2 e9bd acee 3fbd f1b7 cf3d
000001d0: b526 92bd b55f 15be a22e cf3d ff71 1d3b
000001e0: b132 3cbe 5414 7cbd e44e 033e de90 a63e
000001f0: b1b5 09be e39b a2bb 5f33 adbd 153f 1abe
00000200: a7e4 19bd dff8 80be 2189 20be 5cfa 953c
00000210: fe71 7e3c 4630 1fbd fb2e 0fbe be32 3ebd
00000220: 1796 b23d ece7 cdbc afa6 223e 799a 62bd
00000230: 4642 6a3e f806 123d 3c22 90be 9527 b33c
00000240: 0602 afbd 306d 09bc f5a2 463d aab3 89be
00000250: a7f9 01be e8b2 453d 26bb 19be cc12 8b3d
00000260: 4d79 393d 2913 93bb 2074 523e 542a f23d
00000270: 0e85 21be e590 68bd bb41 e63c d43e 67bc
00000280: 4c7b 41be 9bf3 8ebc e7eb b5bd b82d a03d
00000290: 4980 083e 303c 21bd 9d2d 163d b682 81be
000002a0: c9be ca3e 06b7 72be 3791 48bd df31 913c
000002b0: 6e19 8a3d de47 1c3d 517a dc3a 88fc 85be
000002c0: 6cec d3be bb72 ddbe de66 883d f49a 9d3d
000002d0: 3e39 1dbf caf4 883d 3560 1e3c 5e32 263d
000002e0: 83d4 3abe c978 79be 92f7 933d c1c1 fd3d
000002f0: 79b2 593c e5c8 683d 8895 97be 7b0c e8bd
00000300: 324e 15be ccf7 90be 7018 2c3d c052 bebd
00000310: 5013 c7bd 9817 76bd e708 e7bc 395e a83d
00000320: 4003 c73b 65a7 df3d aab1 03be bedf 0c3d
00000330: 6fd8 893d fba8 cdbe 1bc6 df3d e8bf 1ebe
00000340: fe64 123c aa76 09be 9ea1 76bd 6079 483c
00000350: baf3 dfbd 8595 223c d36c 5abd 6171 a5bd
00000360: 95b2 0a3e 830e 09be b9f9 de3d dad3 1b3e
00000370: 49c0 f1be e69e e6be 87ca 523e 540e b6bd
00000380: b3b2 91b9 a639 dc3a 79ba fd3d d3dc 323e
00000390: d715 edbd d22a 44be 63ab 82bd efd3 4fbd
000003a0: 29da 8dbd 32bd 91bd f419 3cbc 7ea7 f13d
000003b0: 32bb edbd 582d 383d e4ce c93d b7bb 96bd
000003c0: 5205 31bb b631 d4bb 4dce bbbd cc37 84bd
000003d0: 6f46 52bd 8b6f 5b3d 8542 50bd a746 873d
000003e0: a1fc 10be 1e01 7d3b e76b 6ebe 164d 99bd
000003f0: 6448 adbd c265 26be 019f 553d 1d1b d33d

fc2.bias f4 [64]
-0.11134091 -0.090611756 0.048819833 -0.0036475013 0.12639788 -0.17250939 -0.07055902 0.11836283
0.087487996 0.21181627 -0.0001960787 0.14028478 0.04309332 -0.06588887 -0.09195574 0.048608113
0.018237801 -0.08731301 -0.08931018 0.07600911 0.09552165 0.19029306 -0.13486573 -0.09177466
-0.105803035 -0.122103706 0.12685166 -0.10961475 0.027576748 0.1654825 0.06370023 -0.05897929
-0.0443491 0.06289825 -0.004951425 -0.054196596 -0.13748083 -0.06650673 0.07605772 -0.04326046
-0.082257815 0.2696914 0.19423638 -0.013908038 -0.036321145 -0.050620392 0.061129387 -0.15224914
0.06968499 -0.14081042 -0.08328549 0.12835336 -0.054916937 0.000119501135 0.09770212 0.007191446
-0.098251514 -0.06651916 -0.00079235696 -0.035358276 0.091673076 0.1527027 0.106575236 -0.074751414
00000000: b406 e4bd a892 b9bd 4ef7 473d eb0a 6fbb
00000010: 726e 013e 4da6 30be 3f81 90bd 3668 f23d
00000020: e82c b33d 5de6 583e 7a9a 4db9 d0a6 0f3e
00000030: 9f82 303d bef0 86bd 4a53 bcbd 4d19 473d
00000040: 7167 953c 2ad1 b2bd 41e8 b6bd aaaa 9b3d
00000050: dba0 c33d 2fdc 423e 3e1a 0abe 5af4 bbbd
00000060: 43af d8bd 8211 fabd 67e5 013e b37d e0bd
00000070: a2e8 e13c 3f74 293e 4475 823d 4594 71bd
00000080: 67a7 35bd ccd0 803d 903f a2bb 40fd 5dbd
00000090: c6c7 0cbe ae34 88bd 26c4 9b3d e131 31bd
000000a0: c976 a8bd fe14 8a3e e7e5 463e 8ade 63bc
000000b0: 7bc5 14bd 5457 4fbd cf62 7a3d 33e7 1bbe
000000c0: 01b7 8e3d 9b30 10be 9591 aabd 106f 033e
000000d0: 95f0 60bd af9c fa38 0d18 c83d 39a6 eb3b
000000e0: 1738 c9bd 333b 88bd 2db6 4fba d7d3 10bd
000000f0: 18bf bb3d 195e 1c3e 1e44 da3d 4517 99bd

fc3.weight f4 [4, 64]
-0.40851566 0.12636384 0.06397612 -0.19731884 0.20558684 -0.011994466 0.086938426 -0.062174466
0.06480402 0.06891228 -0.10284041 0.21041454 0.12815748 0.17720379 -0.009158905 -0.01199564
-0.033665128 0.22805502 -0.08257227 0.13200073 0.046288934 0.09385324 0.04307456 -0.15338989
-0.41820654 -0.04662682 -0.032777153 -0.100134894 0.23501392 0.25908795 -0.318236 0.099162005
0.007250391 0.05963491 0.047501355 -0.044250634 0.040182408 -0.20480001 0.09803715 0.1968462
0.10701707 0.0798926 0.08975535 0.024465289 0.15191919 -0.03683664 0.104850665 0.09986859
-0.03485572 0.15437593 -0.24400593 0.27038395 0.18271554 -0.19298995 0.057911616 -0.16809276
-0.21718921 0.08268124 0.07008104 0.05907425 -0.18584277 0.10347057 0.0547621 0.15401512
-0.079434134 0.21234939 0.25182354 -0.068234146 0.032802135 0.20134065 -0.070657514 0.024529343
-0.021400522 0.06704371 0.017533798 0.14100602 -0.0028784217 0.08123835 -0.020247638 0.06716319
-0.6435657 -0.08610297 -0.3648342 0.12921454 0.04881031 0.12113625 -0.11261845 0.07793262
-0.14248127 -0.07144132 0.1500814 0.15899427 0.09927382 0.2300421 0.0133824665 0.10503417
-0.07494108 -0.048410177 0.107381105 -0.48663476 -0.055669352 -0.191726 0.1388756 0.23889785
0.21557269 0.101277895 -0.034767143 0.11949033 -0.035434112 -0.116120026 0.1322469 -0.04557892
0.09152171 0.003181158 -0.1490926 0.23049782 0.19740488 0.030518817 0.10316933 -0.04529163
-0.0781422 -0.020484261 0.22135258 -0.10330324 -0.10084823 -0.056297846 -0.34723115 0.09382378
0.23062076 0.17573006 0.33732253 -0.0739822 0.05709501 0.014337026 0.33990416 0.14436994
0.0774092 0.092883356 -0.13733454 0.24190186 0.08327712 -0.3470204 -0.074394986 0.13995406
-0.13171399 0.28848132 -0.118152656 0.06694782 0.0056538177 0.15954265 -0.22485194 -0.049641043
-0.09462234 -0.0924226 0.13216813 -0.39856577 -0.0070515764 0.19963504 0.05938302 -0.02011184
-0.5190424 -0.11855681 0.22816443 0.06639074 -0.074620865 -0.18537176 0.069096096 0.09000413
-0.015227552 0.13273984 0.13238138 0.06504031 -0.022006862 -0.03627568 0.108299665 0.027915895
0.2310507 0.07034896 0.08388867 0.26606312 0.01704707 0.030389626 0.117559224 -0.032777186
-0.26159105 -0.07117556 0.05665187 -0.025378246 -0.17645405 0.1148273 -0.50158495 -0.12035536
0.010901573 0.4146115 -0.073786646 -0.21085279 -0.00698146 0.18696128 -0.14803684 0.009406641
0.03840521 0.13128084 0.13380702 -0.17529148 0.15220173 0.40953583 0.05926323 0.046449494
0.11525049 -0.12400347 0.24428391 0.20177713 0.0398726 0.16400146 -0.170669 0.11951392
-0.119769044 -0.078123055 -0.2139142 -0.025755763 0.28574154 0.0008779101 -0.46407333 0.07970297
-0.12283371 0.14147621 -0.025378998 0.07498437 -0.14680128 -0.03417665 0.24275492 0.17730817
-0.0304051 0.15401256 0.17454618 -0.14628826 0.3509133 -0.2530429 0.06276039 0.00024578127
-0.01858694 -0.044426747 0.14242585 0.21421565 0.21752407 -0.049296908 0.06908205 0.03446728
-0.19793828 0.040955476 0.041944195 -0.058443733 -0.19633996 0.0118451025 -0.1345439 -0.24187349
00000000: f728 d1be 8665 013e e905 833d f30d 4abe
00000010: 5b85 523e 7084 44bc c60c b23d a7aa 7ebd
00000020: f8b7 843d e221 8d3d fe9d d2bd e976 573e
00000030: b73b 033e e974 353e 3b0f 16bc 5c89 44bc
00000040: 72e4 09bd 4187 693e a61b a9bd 332b 073e
00000050: 7799 3d3d 2136 c03d f36e 303d 3d12 1dbe
00000060: 2b1f d6be c4fb 3ebd 5641 06bd 8613 cdbd
00000070: 7da7 703e 2da7 843e d4ef a2be 7315 cb3d
00000080: b094 ed3b bc43 743d c890 423d 2740 35bd
00000090: 4f96 243d 18b7 51be b4c7 c83d 0d92 493e
000000a0: c42b db3d bb9e a33d a7d1 b73d 6e6b c83c
000000b0: b490 1b3e 04e2 16bd f2bb d63d e787 cc3d
000000c0: dfc4 0ebd b914 1e3e b1dc 79be c46f 8a3e
000000d0: c819 3b3e 289f 45be bb34 6d3d 8220 2cbe
000000e0: d966 5ebe c854 a93d a686 8f3d d7f7 713d
000000f0: 914d 3ebe 61e8 d33d 394e 603d 24b6 1d3e
00000100: 5dae a2bd 1e72 593e 04ef 803e 58be 8bbd
00000110: 885b 063d 3e2c 4e3e e3b4 90bd c3f1 c83c
00000120: 2650 afbc 364e 893d 0aa3 8f3c e263 103e
00000130: e7a3 3cbb 4b60 a63d 60de a5bc db8c 893d
00000140: b9c0 24bf c156 b0bd 8ccb babe d150 043e
00000150: 52ed 473d 4816 f83d 80a4 e6bd 239b 9f3d
00000160: 9ce6 11be d44f 92bd f0ae 193e 65cf 223e
00000170: 1350 cb3d 2890 6b3e 2242 5b3c 281c d73d
00000180: b57a 99bd c049 46bd a0ea db3d 3128 f9be
00000190: 8c05 64bd d253 44be 6835 0e3e a3a1 743e
000001a0: 16bf 5c3e c96a cf3d fe67 0ebd 59b7 f43d
000001b0: 5c23 11bd 56d0 edbd bb6b 073e f6b0 3abd
000001c0: bc6f bb3d fa7a 503b bbab 18be 9f07 6c3e
000001d0: 8124 4a3e 9902 fa3c 714a d33d b783 39bd
000001e0: 0509 a0bd 9cce a7bc 40aa 623e a690 d3bd
000001f0: 8489 cebd 9298 66bd 48c8 b1be af26 c03d
00000200: d927 6c3e 95f2 333e 8ab5 ac3e fb83 97bd
00000210: 75dc 693d d8e5 6a3c eb07 ae3e b7d5 133e
00000220: b788 9e3d a139 be3d 6da1 0cbe 1fb5 773e
00000230: 328d aa3d a8ac b1be 665c 98bd 1e50 0f3e
00000240: 08e0 06be d3b3 933e 05fa f1bd f01b 893d
00000250: a943 b93b 265f 233e 963f 66be 6854 4bbd
00000260: 5bc9 c1bd 0f48 bdbd 1557 073e d010 ccbe
00000270: e910 e7bb 216d 4c3e 9c3b 733d 96c1 a4bc
00000280: f6df 04bf eacd f2bd f0a3 693e def7 873d
00000290: d3d2 98bd 18d2 3dbe 4182 8d3d 1654 b83d
000002a0: fb7c 79bc f4ec 073e fc8e 073e db33 853d
000002b0: bc47 b4bc cf95 14bd 37cc dd3d e0af e43c
000002c0: 8e98 6c3e 1e13 903d d3cd ab3d 6d39 883e
000002d0: 4ca6 8b3c aaf3 f83c e4c2 f03d 5f41 06bd
000002e0: 43ef 85be 7ec4 91bd cb0b 683d 0ae6 cfbc
000002f0: 5fb0 34be 932a eb3d df67 00bf df7c f6bd
00000300: 839c 323c f547 d43e 741d 97bd cbe9 57be
00000310: bbc4 e4bb c772 3f3e f896 17be 501e 1a3c
00000320: c84e 1d3d 7c6e 063e b504 093e 9c7f 33be
00000330: c5da 1b3e aeae d13e 00be 723d d341 3e3d
00000340: 7308 ec3d 88f5 fdbd 9025 7a3e aa9e 4e3e
00000350: 7451 233d 00f0 273e dbc3 2ebe b7c3 f43d
00000360: 7949 f5bd fbfe 9fbd 530c 5bbe c0fd d2bc
00000370: b74c 923e 8d23 663a 059b edbe 503b a33d
00000380: 3d90 fbbd 24df 103e 9ee7 cfbc 6891 993d
00000390: 1353 16be d1fc 0bbd bf94 783e 4690 353e
000003a0: 1e14 f9bc 78b5 1d3e 3cbc 323e 97cc 15be
000003b0: e8aa b33e d78e 81be 8588 803d 34dc 8039
000003c0: a343 98bc d2f8 35bd 15d8 113e 595b 5b3e
000003d0: a1be 5e3e 8eeb 49bd e47a 8d3d 902d 0d3d
000003e0: 55b0 4abe eec0 273d adcd 2b3d b262 6fbd
000003f0: 580d 49be f611 423c e0c5 09be afad 77be

fc3.bias f4 [4]
0.14851159 0.15259366 0.05274664 0.040653117
00000000: 6c13 183e 8341 1c3e dc0c 583d e283 263d
